day15_and/mnist_cnn_gawi.tflite (tflite, 71768 bytes, 6 tensors)

sequential/dense/BiasAdd/ReadVariableOp f4 [128]
00000000: 3cab 993c cca0 a53c 0000 0000 bbde 80bc
00000010: 1ed4 a6ba 2f18 a33c 00d0 75bc 4721 a33c
00000020: 508b 9b3c 0000 0000 0a00 b2bb 9aa8 413c
00000030: 99e6 143c 0000 0000 e41b a03c 5eb3 f9bb
00000040: 703b 08bc af97 85bc 192d 863c ad10 163c
00000050: b6df b9bb 3c86 a33c 525d 523c 0000 0000
00000060: 070b 33bc 8f38 a53c c08a a63c 03d6 a8bb
00000070: 2c5c 263c 0000 0000 eca1 0cba 0000 0000
00000080: 15a3 963c f8a8 a03c e39b a83c 86a6 c93b
00000090: b814 8d3c 29bf 48bc a695 9b3c e6c2 adbb
000000a0: 6ac0 0cbc 6280 a73c 9f34 59bc a4b1 a43c
000000b0: 0000 0000 9e7b 543b ab06 a13c 937f b1bb
000000c0: 50ba 613c 5d8e 9e3c 7963 663c a112 a13c
000000d0: 0ae1 58bc d484 983c 0000 0000 0000 0000
000000e0: 79aa 8e3c 0000 0000 0000 0000 c3b8 913c
000000f0: 0000 0000 183f a63c 26c4 713c 1249 9f3c
00000100: c6fd 8f3c 986e a53c 8221 9c3c ef99 67bb
00000110: f6df 9bbc 7d99 a63c a937 a23c 0000 0000
00000120: 3e81 a53c 7751 213c 2f2b 433c 5978 9a3c
00000130: 666d 933c 78da a63c dabf 31bb 0000 0000
00000140: 7c9a 9f3c 5fc2 b53a 0000 0000 0000 0000
00000150: 147b b13b 55f8 a53c 9266 9a3c 354c a33c
00000160: 3462 6d3c d29f 4a3c 0000 0000 e31e 523c
00000170: 9044 553c c2c7 ff3b a490 e63b 0b0a a73c
00000180: 8839 9f3c d1c7 a33c 7fa1 993c ba1c 963c
00000190: 4a14 5f3c 0000 0000 0000 0000 5245 45bc
000001a0: 165e 5cbc 995a 833c 8aa8 a63c 0000 0000
000001b0: 2f27 82bc 0000 0000 eeb8 80bb 2acf 3dbc
000001c0: 1dc2 8abb 59e0 ae3a 6ac9 8f3c 417f a53c
000001d0: 0000 0000 92cc 873c 8dda 383c be60 9e3c
000001e0: 8e61 97bc 03a0 313c ff33 8c3c 3462 fe3b
000001f0: 1ac7 043c 0000 0000 62d8 933c c7f1 973c
0.018758409 0.020218275 0.0 -0.015731206 -0.0012728011 0.019908993 -0.015003204 0.019913329
0.018987328 0.0 -0.0054321336 0.011819983 0.009088182 0.0 0.01954455 -0.007620259
-0.008314952 -0.01630768 0.016378926 0.009159249 -0.0056724204 0.019961469 0.012839632 0.0
-0.010927922 0.02016857 0.020329833 -0.0051524653 0.010153811 0.0 -0.00053647044 0.0
0.01838831 0.01961182 0.020582145 0.0061538843 0.017221794 -0.012252607 0.018992256 -0.0053027747
-0.008590797 0.02044696 -0.013257175 0.020104237 0.0 0.0032422314 0.0196565 -0.0054168194
0.0137773305 0.019354993 0.014061802 0.019662203 -0.013237247 0.018618025 0.0 0.0
0.017415272 0.0 0.0 0.017788297 0.0 0.020293757 0.014756238 0.019444022
0.017577063 0.020194337 0.019058947 -0.0035339554 -0.019027691 0.02033686 0.019801931 0.0
0.020203229 0.009846083 0.011912151 0.018856214 0.017996501 0.020367846 -0.002712241 0.0
0.019482844 0.0013867131 0.0 0.0 0.0054162834 0.020260016 0.018847737 0.0199338
0.0144887455 0.012367206 0.0 0.012824747 0.013016835 0.0078057954 0.0070362855 0.020390531
0.019436613 0.01999274 0.018753765 0.018324245 0.013615677 0.0 0.0 -0.012040453
-0.013450166 0.016034411 0.020344038 0.0 -0.015887825 0.0 -0.0039282953 -0.011585036
-0.004234566 0.0013342007 0.017552096 0.020202281 0.0 0.016577039 0.011282575 0.01933324
-0.018479135 0.010841372 0.017114637 0.0077631716 0.00810411 0.0 0.018047515 0.018547906

sequential/dense_2/BiasAdd/ReadVariableOp f4 [3]
00000000: a8a4 a63c fe23 a2bc 4c2e a7bc
0.020342186 -0.019792553 -0.020407818

sequential/dense_1/BiasAdd/ReadVariableOp f4 [128]
00000000: e8b4 93ba 0000 0000 9b7e 28bb f8d5 3cbc
00000010: 4d31 a03c 0000 0000 6b0e e1ba 0000 0000
00000020: 0000 0000 6f53 383b c31d a33c 74d4 8dbc
00000030: 0000 0000 60bc 6f3c 02f7 993c a5e0 683a
00000040: 0808 783c 956b a83c 0000 0000 be7f 4bbc
00000050: efd7 12bc 0000 0000 0000 0000 b147 a43c
00000060: ff5b a43c a2d3 a4bc 0000 0000 3475 3ebb
00000070: 95c8 52bc 8b3e 9e3c d5b7 f2bb 5c1c 8c3b
00000080: 6af4 8dbc 0000 0000 a9af 3abc 450a a13c
00000090: 0000 0000 3ddb 8a3c 8ac4 adbb d3db 1fbc
000000a0: 0000 0000 0000 0000 0ee7 4e3b 06da 933c
000000b0: 017e 823c 6dfa a03c 1e9f 043c d96d a13c
000000c0: a79d 913c 8cf0 8c3c 4ded 42bb 4556 eebb
000000d0: 2394 82bc aeaf 03bc 05c5 a93c 0000 0000
000000e0: 308c 03bc 7c75 92bc b00d 993c 169f a33c
000000f0: 0000 0000 2068 28bc 0e46 053b 2012 8cbc
00000100: 9c2a 93bc 564a 51bc 8147 6a3c c517 90bc
00000110: 3617 a73c 9704 f3bb 363a 7cbc a2c5 adbb
00000120: 6651 74bc b4ab 67bc f478 a13c 3ee9 923c
00000130: 0000 0000 c433 4cbc d207 8a3c 0000 0000
00000140: 6431 8a3c 21cf 413c 39c0 413c 0000 0000
00000150: 8051 a43c 2e73 613c a812 a0bb 9e31 313c
00000160: ad73 67bc 0000 0000 fb4c a13c 7b10 333c
00000170: 0000 0000 e29a a53c 69f5 ffbb 36be adbb
00000180: d791 78bc a62b 763b 90dc a23c 08af 96bc
00000190: c9b4 783c 3a2c 4bbc 5615 a63c 5924 82ba
000001a0: c695 80bc 3155 8d3c 6872 ab3b 0000 0000
000001b0: 72d4 9e3c ae70 13bc 9e54 13bc 028e 2a3c
000001c0: 0000 0000 637c a43c 6e73 a23c 212e 26bc
000001d0: 0000 0000 63e3 65bc 328e a23c 0000 0000
000001e0: b080 6e3b 0000 0000 3f5c 993c 6679 0f3c
000001f0: 7624 55bc 28a5 13b9 2091 87bc 0000 0000
-0.0011269124 0.0 -0.0025710228 -0.0115256235 0.019554758 0.0 -0.0017170435 0.0
0.0 0.0028125902 0.019911652 -0.01731322 0.0 0.014632314 0.01879454 0.00088835723
0.015138634 0.020559112 0.0 -0.012420593 -0.008962615 0.0 0.0 0.020053716
0.020063398 -0.020120446 0.0 -0.0029061558 -0.012865205 0.019316932 -0.0074071684 0.0042758416
-0.01732846 0.0 -0.01139442 0.019658217 0.0 0.016950244 -0.0053029703 -0.009757
0.0 0.0 0.0031570825 0.018048298 0.015929224 0.019650662 0.008094577 0.0197057
0.01777537 0.017204545 -0.0029743493 -0.0072734677 -0.015939778 -0.008037491 0.020723829 0.0
-0.008029029 -0.017878287 0.018683285 0.019973319 0.0 -0.010278732 0.0020335945 -0.017098486
-0.017964654 -0.012774071 0.014299274 -0.01758946 0.02039681 -0.0074163186 -0.015394738 -0.0053031007
-0.014911985 -0.014140058 0.019710995 0.017933484 0.0 -0.012463514 0.016849432 0.0
0.016869254 0.011829169 0.011825615 0.0 0.020058393 0.013760371 -0.0048850365 0.010815052
-0.0141267 0.0 0.019690027 0.010929222 0.0 0.020215455 -0.0078112376 -0.005302216
-0.01517149 0.0037562638 0.019880563 -0.018394008 0.015179821 -0.012400681 0.020273846 -0.0009929045
-0.015696418 0.017252536 0.005232144 0.0 0.019388411 -0.008999033 -0.008992342 0.010409834
0.0 0.020078843 0.019830432 -0.010142834 0.0 -0.014031264 0.019843195 0.0
0.0036392622 0.0 0.018720744 0.008756971 -0.013009181 -0.00014080538 -0.016548693 0.0

sequential/dense/MatMul f4 [128, 3]
00000000: 70b1 80bd 4122 8b3d 0c3d 78bd c7a3 253d
00000010: d39f 04be d692 fcbd 40b9 bfbb 63c7 c7bd
00000020: 4175 57be a60f 20be 985a 943d 3f60 143e
00000030: cc6e 433e 7ae9 cebd 566b 81bd 7782 323e
00000040: 28d2 a5bd 76c2 91bd 6619 1cbe 5eaf 02be
00000050: 87e1 0e3e 6752 c33d ac2f 9bbd d902 b63d
00000060: 8dbc 033e 7bac d4bd b3f6 983b 5a34 ddbd
00000070: 9c93 2dbd f488 66bd 6a33 47bb a046 95bd
00000080: 4dce 283e 8ca5 37bd f361 123e 7e23 2fbe
00000090: aec7 573e 754e 403d f65e 8cbd f138 55be
000000a0: 507e 21bd afa5 bfbd 1d8b 48be 2fa2 edbd
000000b0: 93a6 bd3d 805b 36bc 2c43 3cbe 9391 4b3e
000000c0: 0006 6dbc 2d8d 0d3d 8bd5 de3d 70b3 de3c
000000d0: b078 fb3d ba9e ffbd 40ce 8ebd 0cf0 373e
000000e0: f31d 323e 90bd 59bc 876f c93c a753 54be
000000f0: 7810 67bd d269 023e 4d5f 333e 386c db3d
00000100: 5e0f ec3d 0f90 443e b834 2b3e e468 1dbe
00000110: 554a ec3d 9af0 d9bd e009 cfbd c60c 9ebd
00000120: 8998 bcbd bc94 3abd 220f 343d bac6 393e
00000130: aefa 203d bff9 e9bd 2efd db3d 4a4b 353e
00000140: f68c aa3d f484 53bd 0e70 9dbb 6128 683d
00000150: 745d 7bbd 31de 6a3d 5167 56be 114b d1bd
00000160: 3445 a1bd 7ca3 c7bd 1fa9 59be 7080 95bd
00000170: 3b2d d03d 18e5 f8bc 269b 4ebe 86d3 d7bd
00000180: 2a43 0f3e 4640 90bd c71b 02be 57b7 3bbe
00000190: d543 2a3e 0227 e8bd 4f95 f33d 498a 4c3e
000001a0: a292 08be abc2 053e 89b1 143e 8092 48be
000001b0: f23f 223d e5c3 ccbd c121 9e3d 7218 7e3b
000001c0: 834d db3c 6e74 b73d 0829 5fbd d58a 6f3e
000001d0: b680 8ebb a60f 9fbb 7c2d e6bd 72e7 34be
000001e0: 9ce9 7139 802f dcba d144 1ebe cf91 583e
000001f0: 8b40 ccbd 356f 53be 84fb 08be 88fc fc3d
00000200: 6114 f13d a042 d63d 3629 4d3d 6a4a b13d
00000210: d8d1 cfbd dc71 43bd 9bf6 bdbd 99d2 203e
00000220: b5cd f33d 1678 80bd 0655 b53c d6a9 bf3d
00000230: 989a 8abd 66eb 02be d88c 273e 24e5 273b
00000240: 58b2 1c3c cefd 5b3e 2f26 163d 28b2 c6bc
00000250: bc38 05be 6502 213e a58f 213e 5735 333e
00000260: 38dc 14be 4804 dbbc d05f 193e a405 01be
00000270: 8b36 a43d a446 db3d 81b5 07be c8e4 163e
00000280: 6cb2 873d ea58 0dbe fe8a b5bd 799f 28be
00000290: 156a b7bd 936e debd 0a20 4dbe 04bc 01bd
000002a0: 3466 43bd b410 4cbd 6ab4 263e 9d94 ffbd
000002b0: 7fe7 36be bc12 68bd 840d 6ebd e06c 7cbd
000002c0: 4430 0dbd e533 df3c ea1d abbb 0075 41bd
000002d0: c5fb 1fbe d8a2 45bd 28d0 51bd c656 52bc
000002e0: ddea de3d 18d9 f6bc 4bf5 65bc 5e19 213e
000002f0: c015 6fbc ca48 59be 789f 2fbe 212c 9d3d
00000300: 742a 823d 40ce 19bd 86f6 eb3c 08f1 383e
00000310: 8b8b d23d dc99 9cbd b166 313e 0cb6 1bbd
00000320: a497 3a3e 6030 bdbb 60c0 cfbb b834 513e
00000330: 1efc d93c 0b90 d13d e3d0 ac3d d6dc 0e3e
00000340: fa47 32be b402 303e 80b8 2fbd b995 ac3c
00000350: 87fe 20bb c302 4bbe 5c4a ebbd a8ff d5bc
00000360: 1a7b 6c3e 5e48 89bd f5a7 3ebe 09ae 12bc
00000370: afe5 6f3e 3a4b afbb 61e2 3fbc 92d2 0f3e
00000380: fb0c 273e 3f3e 5b3d 3de7 2d3e a096 36be
00000390: 0b7a 13be 56ea 953d f2ed dd3d 1d3e 5d3e
000003a0: 3e3b 11be 5f16 45be 6073 17bd 5d4a 3c3e
000003b0: 89f5 e43b 9cbe 34bd b4fd 29bd f09e 7bbd
000003c0: 96fd 223e 3891 3fbe d0d9 b43c 82f9 28be
000003d0: 4066 6cbd 4ce7 d63d f100 0dbe 4ade ffbd
000003e0: 4020 b0bb 66bc 3abe 0aee a8bd b03c d0bc
000003f0: 8271 9fbd c0d7 373d 70e3 e3bd bd67 673e
-0.062838435 0.06793643 -0.060605094 0.040439393 -0.12951593 -0.12332694 -0.005850941 -0.09754827
-0.21040823 -0.1563097 0.07243842 0.1448984 0.19085234 -0.10103126 -0.06319301 0.17432581
-0.08096725 -0.071171686 -0.15244064 -0.1276221 0.1395322 0.095372014 -0.07577452 0.08887262
0.12864895 -0.103844605 0.0046680807 -0.10801001 -0.0423771 -0.056282952 -0.0030395635 -0.07288861
0.16484948 -0.044835612 0.14295177 -0.17103383 0.21072266 0.046949822 -0.0685405 -0.20822503
-0.0394271 -0.093577735 -0.19584318 -0.116032 0.09260287 -0.011130214 -0.18384999 0.19879751
-0.014466763 0.034558464 0.10880574 0.027185172 0.12278879 -0.124814466 -0.06972933 0.17962664
0.17394237 -0.013289824 0.024589313 -0.20735036 -0.05641219 0.1273568 0.17516823 0.107140005
0.115263686 0.19195579 0.1671933 -0.15372044 0.11537615 -0.10641594 -0.101093054 -0.0771728
-0.09208781 -0.045552 0.043959744 0.18142214 0.039301567 -0.114245884 0.107416496 0.17704502
0.083276674 -0.051640466 -0.0048046177 0.056679133 -0.06136842 0.057340804 -0.2093785 -0.10219396
-0.078745276 -0.09747979 -0.21255921 -0.07299888 0.10164877 -0.030382678 -0.20176372 -0.10538392
0.13990465 -0.07043509 -0.12705909 -0.18331657 0.16627438 -0.11335565 0.11893713 0.19974627
-0.13337186 0.13062541 0.1452085 -0.19587135 0.039611764 -0.099983014 0.07721282 0.0038771895
0.026770359 0.08957754 -0.05448249 0.23392804 -0.0043488396 -0.0048541604 -0.11239144 -0.17666414
0.00023070577 -0.0016798824 -0.15455939 0.21149372 -0.09973248 -0.20647891 -0.13377196 0.12352854
0.11771465 0.104619265 0.05008813 0.086567715 -0.101474464 -0.047716007 -0.09275552 0.15705337
0.1190447 -0.062729046 0.022135269 0.093585655 -0.06767768 -0.1278511 0.16362321 0.0025618756
0.009564005 0.21483538 0.03665751 -0.024254873 -0.13009924 0.1572357 0.15777452 0.17500816
-0.14537132 -0.02673544 0.14977956 -0.12599808 0.08018216 0.10706833 -0.13252832 0.1473571
0.06625828 -0.1380345 -0.08864401 -0.16467084 -0.089557804 -0.10860934 -0.20031753 -0.031673446
-0.04770489 -0.049820617 0.1627976 -0.124795176 -0.17861746 -0.05665849 -0.05811836 -0.06162727
-0.034469858 0.027246425 -0.005222072 -0.04723072 -0.15623386 -0.048251003 -0.051223904 -0.012838071
0.1088464 -0.030132815 -0.014035533 0.15732333 -0.014592588 -0.21219173 -0.17150676 0.076744325
0.063557535 -0.03755021 0.028804075 0.18060696 0.10280522 -0.07646534 0.1732433 -0.03801541
0.18221909 -0.005773589 -0.0063400716 0.20430267 0.026609477 0.10232552 0.084382795 0.1395143
-0.1741027 0.17188531 -0.042900562 0.021067487 -0.0024565773 -0.19825272 -0.11488792 -0.026122883
0.23093835 -0.06703256 -0.18618758 -0.008952626 0.23427461 -0.005349544 -0.011711688 0.1404517
0.16313545 0.05352616 0.16982742 -0.17830896 -0.14402024 0.07320087 0.108364 0.21605726
-0.14182755 -0.19246815 -0.036975265 0.18387742 0.006987278 -0.04412709 -0.041501716 -0.06143087
0.15917048 -0.1870774 0.022076517 -0.1650143 -0.0577147 0.10493335 -0.1376989 -0.1249357
-0.0053749382 -0.18235931 -0.08248527 -0.025419563 -0.07785322 0.04488349 -0.11127365 0.22598167

sequential/dense_1/MatMul f4 [128, 128]
00000000: 63fa 543d 07ab 133e f8f9 323d f4ee 28be
00000010: 33a4 09bd 817b 8cbd 444c 913d c632 b83d
00000020: 4444 333d 5185 1b3e de9b 263d cbd4 b63d
00000030: c18d e9bd b427 c9bd b1d9 ed3d c2ad e3bd
00000040: 5509 66bd d373 163d 3521 e9bd 8cf8 dbbd
00000050: 10e2 983d 61af cebd 7194 063d 7da9 1c3e
00000060: f8f0 b5bd 0f84 68bd d6e3 85bd f60b 0f3b
00000070: ecd6 cd3d 2470 8ebd d258 9ebc 800d aa3d
00000080: 129e ce3d 4f75 90bc d8a9 283e b73c 6a3d
00000090: 1985 513d 6ef3 873c 843f c13c 1049 adbd
000000a0: 8bbb ed3d ca42 18bd 7e47 b03d af3d 18be
000000b0: c542 193e 9ee4 6fbd cbf8 1b3e adfb be3c
000000c0: 2bd6 b83d 55e4 113d f620 fc3c f49d b2bb
000000d0: 2aef fbbb 3249 b0ba 6830 153d e9e8 0ebe
000000e0: a74e dabd 1714 88bd 7a3e 863d 3b27 d33d
000000f0: d293 893d 8e40 f9bd 6d11 2f3e b8bc 923d
00000100: 3c7d f43d a167 103e 5429 9b3d 02a4 15bd
00000110: 87f1 15be 8800 a73d 54f2 2fbd d0c0 2cbd
00000120: 1e3c 893d 07ef ef3d 9358 b83d 2d6c 133d
00000130: 0172 713d d0d9 e2bd 3a7c ee3d fcba 2bbd
00000140: 394e 2c3e fc99 b3bd 2a7f 55bd d5bd a3bd
00000150: 089f a1bd 4e9c 1e3e a458 f53d f33d 2f3e
00000160: af6a 093e 2e56 c1bd 4477 26bd ed6b 92bd
00000170: 7244 f73d 4237 e7bb 3c3c 0ebb 9604 a3bb
00000180: f998 d43d 8654 12be 4d6f fcbd d127 e3bd
00000190: 3668 283e 558e 183e 58d9 463d 383c 1a3c
000001a0: af44 fbbc 63fb fa3d 3e01 f63b 00be 3d3d
000001b0: e29f 223e c005 7bbd 16ea 4dbc f2b3 06be
000001c0: 611c 433d c8d2 0e3e 51f8 2a3c 3d8d 4abd
000001d0: cc40 963d d838 1bbe 4de6 b83c 0d04 ffbd
000001e0: a5b8 9a3c 0b0d a83d 29c2 9bbd bda9 b6bc
000001f0: eabe 153e 59b2 86bd 5794 4e3d a5fa f23d
00000200: fa77 d03d d224 fc3d e843 17bd 5526 003e
00000210: 40f9 42bb 6032 0d3c b89e ae3c 0e1c ec3d
00000220: 2261 ca3d e276 04be b0bf 903d fbbb e1bd
00000230: 58f7 d0bd e53b 113e d891 613d c90a 19be
00000240: a4a2 f2bd 5e5b 07bd cecf ba3d babb 0abd
00000250: 7081 40bd 5c75 e4bd 9410 efbc 12e2 bbbd
00000260: 58c2 adbc 7d95 113e 1c79 f0bc 8fb0 b7bd
00000270: 868b d9bd 892c 033e a377 84bd 2173 103e
00000280: 43e3 043e 46d6 963d 40d2 453d 70f3 0cbc
00000290: 1066 b7bc 2588 a0bd e242 af3d 9091 fc3c
000002a0: 6ee6 e9bd 1c2d 893d 1763 023e 3b74 82bd
000002b0: e2e0 91bd 7c21 bcbd 5083 8b3c 88df 893c
000002c0: 44a6 9ebd 3c06 213d 1ec7 e13d 306f 963d
000002d0: 67a8 a7bd ddb5 8bbd ce88 fb3d 2705 04be
000002e0: fde7 b8bd 48c4 8c3d ce6a c23d 5d16 f7bd
000002f0: 7e29 c83d 3fa6 043e 77b9 95bd f2e4 38bd
00000300: 7e13 de3d 76e1 28bd d38a d4bd 984c aabd
00000310: ace0 17bd 5e29 803d e0cb 03be ab45 133e
00000320: 4879 b2bd c602 74bd 948e bb3d 140e dcbd
00000330: 9a75 db3d 637d e5bd fca1 b03d 1ab5 d43d
00000340: 6b89 0b3e da6a 01be 301f 05be d46c 963d
00000350: e968 17be 0068 9439 a25e 9e3d a8ba 0cbe
00000360: a8ab f73c 086d aa3d 9c31 1ebd 860b dfbd
00000370: 6ff8 143e a8a4 48bd 74ac b2bd 48a5 ba3d
00000380: 760b 0ebe da42 8dbd 9e80 ce3d 35f4 1b3e
00000390: 84fa bebd a249 dd3d 0d8a 90bd 90a6 b0bc
000003a0: 3653 ccbd 10bd e93c b081 893c d016 d5bc
000003b0: c8ee b8bd feff 01be 334b 13be 6622 c53d
000003c0: 6a4a 17be 6495 c3bd 3299 33bd f7b3 e3bd
000003d0: d030 643d 40a6 4f3b 20c2 f03c c2aa 78bd
000003e0: 94e2 03bd 21e4 15be bece 71bd 348a 7e3d
000003f0: f07a d03c 5029 10bd c505 11be 70ba debd
0.0519966 0.1442071 0.04369542 -0.16497403 -0.03360386 -0.06859494 0.07094625 0.08994059
0.043766275 0.15187575 0.04067599 0.08927306 -0.114039905 -0.09822026 0.11613787 -0.11117126
-0.056161243 0.036731552 -0.11383287 -0.10740766 0.07464993 -0.100920446 0.03285641 0.1529903
-0.08883852 -0.056766566 -0.06537597 0.0021827198 0.10050759 -0.06954983 -0.019329462 0.08303356
0.10088743 -0.017634062 0.1647104 0.05718681 0.051152322 0.016595569 0.023589857 -0.08461201
0.116080366 -0.03717307 0.08607386 -0.1486728 0.14966877 -0.058567636 0.15231626 0.023313368
0.09025224 0.035618145 0.030777436 -0.0054509584 -0.0076884227 -0.0013449548 0.036423117 -0.13956036
-0.10659533 -0.06644457 0.06554885 0.10310217 0.067176476 -0.12170516 0.17096491 0.071649015
0.11937949 0.14102031 0.07576242 -0.036533363 -0.14642917 0.08154398 -0.04295571 -0.042176068
0.067009196 0.11715513 0.09001269 0.035991836 0.058946613 -0.11076701 0.11644788 -0.04192637
0.16826715 -0.087696046 -0.052123226 -0.07995192 -0.07891661 0.15489313 0.119797975 0.17113476
0.13419603 -0.094402656 -0.040641084 -0.071494915 0.12073602 -0.007056148 -0.0021703383 -0.004974912
0.1038074 -0.14290056 -0.123259164 -0.11091579 0.16446003 0.14898045 0.04854712 0.009413771
-0.0306724 0.122549795 0.0075074723 0.046323776 0.15881303 -0.06128478 -0.0125680175 -0.13154581
0.047634486 0.13947594 0.01043518 -0.0494511 0.07336578 -0.15158403 0.022570753 -0.124519445
0.018886873 0.08205613 -0.076053925 -0.022297734 0.14623609 -0.06576986 0.050434437 0.11864213
0.10179134 0.123117104 -0.036929995 0.12514623 -0.0029750615 0.008617967 0.021315917 0.115287885
0.09881808 -0.12935975 0.070678115 -0.110221826 -0.10203427 0.14183004 0.055070728 -0.1494552
-0.118474275 -0.03304612 0.09121667 -0.033870436 -0.04699844 -0.11155197 -0.02918271 -0.09173979
-0.021210834 0.14217182 -0.029354624 -0.08969223 -0.10622315 0.12809958 -0.064681314 0.14106418
0.12977318 0.07365088 0.048296213 -0.008602962 -0.022387534 -0.078384675 0.08557679 0.030831128
-0.11420904 0.06698057 0.12733112 -0.063698255 -0.07122971 -0.09186074 0.017030388 0.01683022
-0.077465564 0.039312586 0.11024307 0.07345426 -0.08186417 -0.06821797 0.12281953 -0.1289259
-0.09028623 0.06873375 0.094930276 -0.12064812 0.09773539 0.12954043 -0.07310765 -0.045140214
0.108435616 -0.04123064 -0.10378041 -0.0831539 -0.0370795 0.0625789 -0.12870741 0.14382045
-0.08714539 -0.059572957 0.09158054 -0.10744873 0.1071579 -0.11205556 0.08624646 0.10386105
0.1362664 -0.12638417 -0.13000178 0.07344976 -0.14786114 0.00028306246 0.077328935 -0.13743079
0.03023322 0.08321577 -0.03862153 -0.1089087 0.14547895 -0.048985153 -0.08724299 0.09113556
-0.1387156 -0.068975165 0.100831255 0.15229876 -0.09325126 0.1080506 -0.07057581 -0.021563798
-0.09976809 0.028532535 0.016785473 -0.026011854 -0.09029919 -0.1269531 -0.14384155 0.096257016
-0.1477448 -0.095499784 -0.04384727 -0.1111831 0.055710614 0.0031684786 0.029389441 -0.060709722
-0.032198504 -0.14637806 -0.059035055 0.06214352 0.025449246 -0.03519565 -0.14162357 -0.10875404

sequential/dense_2/MatMul f4 [3, 128]
00000000: 126b 7d3d c099 25be f02c 0d3e 84b3 3abd
00000010: cc26 0ebe 00a0 97b9 2b41 103e fcd3 0cbe
00000020: c982 483e d4da 543e 1a17 e8bd 1b3e 42bd
00000030: 4a40 973d 9c2d 15be 9a35 173d 5020 5cbe
00000040: 132b 84bb 2dd4 3ebe 1010 78bc 945c 11be
00000050: 5be5 e83d a2e6 983d c092 a0bc 8393 013d
00000060: 7fd7 203e 274c 88bc d36a 4f3e 3658 b1bd
00000070: 17f7 55be 5987 f4bd 1d21 b73d 84db 0ebe
00000080: baca 09bd e14b 3b3e 15c4 0bbe 6e68 d2bd
00000090: ec30 0e3d c578 69be f8a8 17be e408 44bd
000000a0: fa11 5bbe b055 16be b04d 0bbe 8865 d03d
000000b0: 1722 173e ac6f 40be 13c8 393e 10b2 f8bc
000000c0: e3a7 7d3d 68c3 1c3d e57d acbc c41d b53d
000000d0: 374c 24be dcfc 56be 8483 8f3d 2fa3 033e
000000e0: 72ec 49be e9c2 783d 743d 053e be1e ebbd
000000f0: 2bb6 573e dcf8 9bbd 568c 7abd 61eb 12be
00000100: 94d7 1abe 1b8f 23bd 3e74 58be 4a2c 4b3b
00000110: 0100 693e 412b f23d bf10 453e d517 16be
00000120: a593 2f3e d4aa 0a3d 5660 48be 0ee5 1dbe
00000130: 86b4 0cbe a905 e7bd 8cb6 693e 4db3 033e
00000140: b73b 973d 888f 6bbe 7397 71bd 9053 50bc
00000150: 7c59 74bd 8f2a c1bd 4d35 893a 80e3 3f3d
00000160: 2e62 5dbe 9839 21be 0016 edbd e662 c4bd
00000170: 99ce 293e 4a0b d23d a8f2 573d e590 993c
00000180: 9519 29be 28c9 4abe da28 babd 9090 853d
00000190: 7e7c 07be 6085 48be 178b ce3b 34dd 27bc
000001a0: f4f6 54bd f367 253e e2d9 93bd 00f6 afbd
000001b0: 9f04 273e d918 da3d 42a1 0d3e c2cb aabd
000001c0: 48bc 4dbe 4415 b33d a3d4 b6bd 0c44 033e
000001d0: 09de 00be 5bfd 683d 5870 c73d 2e77 e83d
000001e0: 7d83 2cbe 1a30 55be 5565 1b3e bf3c 053e
000001f0: 139e 2abe 055a 09be 1efd ca3c d8c5 f83c
00000200: b082 143e c614 833d 92ce a93d 69e1 463e
00000210: ee9d ab3d 9c76 4ebd 21bf 263c 83e7 51be
00000220: 5bca 44be 4d12 213e 746a 493e 0e5e 8e3c
00000230: 3981 37be 0371 7a3d a702 443e a1b0 47bd
00000240: 18af 323e 2eb9 8f3c a0d4 0b3c 4432 31be
00000250: f417 babd 3521 2b3e 8e4f fc3d 86f4 3bbe
00000260: 311d 03bd ca7f 743a 54ae 693d eef3 8bbd
00000270: 8f7f d73d bbe2 7b3d 23fc 2f3d 52aa 1c3e
00000280: e34a 3d3e 6ac9 12be 0c13 e8bd 39cb eebd
00000290: 04a3 4e3d e72f 043e caa4 25be 0573 e33b
000002a0: 3e35 91bd 8087 aabd 9384 253d f00f 5ebc
000002b0: eccf 6b3d 457d 2c3e 9b30 6fbc 6fea 603e
000002c0: af70 353e a393 5abe 7e55 43be fc08 3a3e
000002d0: 4ccf 9f3c 1559 ee3a 32ef c33d 822f 1ebe
000002e0: 4372 94bd 52ed 503d 515d 38be 6d20 0bbe
000002f0: f115 313e daa5 5bbd 5cec a33d 2d00 c03c
00000300: 2713 48be d609 413e f008 783c ccaf bd3d
00000310: eb89 213e 2b39 1fbc c726 7a3d 56c7 373e
00000320: c5d1 85bc a850 2cbe 348a 393d 903e 913d
00000330: b625 a73d b6e0 28be 2566 e5bd 926c bb3d
00000340: 0cdd 94bd c84c 693e fa2a ddbd db4f 543e
00000350: 7244 f2bd f9ff 5f3e 596c b63c b62d 0e3e
00000360: 264e 18be 7e0f a13d f6af a5bd 90e7 fabd
00000370: 66df 913d cecd 683e e13b 6cbd e1d2 91bd
00000380: a3a7 0f3d dcc3 5c3e 42d9 08bd a19e f33c
00000390: 6a29 20bd 1f86 d3bd a94c 053e 31ca f73d
000003a0: 2af0 d7bc dae3 dabc 3324 e43c 5501 203e
000003b0: 33f7 903c 6c3e 4a3e a6ee 4d3d 2f60 93bd
000003c0: 0068 043a f297 543e daa3 0f3e c495 1c3e
000003d0: 869e f43d 4d19 ac3c 69d4 cbbc af95 08be
000003e0: ca66 bdbd d402 4abe 6110 48be 5088 033e
000003f0: 007e 033e 8959 323e 960d fe3d 3cf6 56be
0.06186969 -0.16171932 0.13786674 -0.045581356 -0.13881987 -0.00028920174 0.1408736 -0.1375274
0.1958114 0.20786601 -0.11332531 -0.04742251 0.07385309 -0.1456818 0.036916353 -0.21496701
-0.004033455 -0.18635626 -0.015140548 -0.14195472 0.11371871 0.07465865 -0.019601226 0.03163482
0.15707205 -0.016637875 0.20255594 -0.08659403 -0.20895039 -0.11939878 0.08941863 -0.13950926
-0.0336406 0.18290664 -0.13649018 -0.10273825 0.034714624 -0.22799976 -0.1481055 -0.04786004
-0.21393576 -0.14681125 -0.13603854 0.101756155 0.14759098 -0.187926 0.18142729 -0.030358344
0.061927687 0.03827229 -0.021056125 0.08843568 -0.16044699 -0.20994896 0.070075065 0.12855218
-0.19719103 0.060732756 0.13011724 -0.11480473 0.21065585 -0.076158255 -0.06116899 -0.14347602
-0.15121299 -0.039931398 -0.21138093 0.003100174 0.22753908 0.11824656 0.1924467 -0.14657529
0.17146166 0.03385432 -0.19567999 -0.15419409 -0.13740739 -0.112803765 0.22823542 0.12861367
0.073844366 -0.23003972 -0.058982324 -0.012715235 -0.05965565 -0.094319455 0.0010468155 0.04684782
-0.21619484 -0.15744627 -0.11576462 -0.09589176 0.16582717 0.102560595 0.05272165 0.018745849
-0.16513665 -0.19803298 -0.09089823 0.06521714 -0.13231084 -0.19582129 0.006303202 -0.01024561
-0.051993325 0.16152935 -0.07219292 -0.08591843 0.16310357 0.106492706 0.13831046 -0.08339645
-0.20091355 0.087442905 -0.08927276 0.12818927 -0.125847 0.056882244 0.09738225 0.11350857
-0.16847034 -0.2081913 0.15175374 0.13011454 -0.16661863 -0.13413246 0.024778899 0.030367777
0.14502978 0.064004466 0.08291353 0.19421925 0.08379732 -0.050406083 0.010177405 -0.20498471
-0.19217817 0.15729637 0.19669515 0.017378833 -0.17920388 0.061142933 0.19141637 -0.04875243
0.17449605 0.017544355 0.0085345805 -0.17304331 -0.090866 0.16711886 0.12319861 -0.18354997
-0.03201026 0.00093269034 0.057051018 -0.06833635 0.10522377 0.061495524 0.042965066 0.15299347
0.18485598 -0.14334646 -0.11331758 -0.116598554 0.050448433 0.12908898 -0.16176143 0.0069412016
-0.07090233 -0.08326626 0.040409636 -0.0135536045 0.057571337 0.16844662 -0.014598991 0.2196443
0.17718767 -0.21345381 -0.19075581 0.1816749 0.019508027 0.0018184507 0.09567107 -0.1544781
-0.07248356 0.051007576 -0.18004347 -0.13586588 0.17293526 -0.053624965 0.08004066 0.023437584
-0.19538556 0.18851408 0.01513885 0.09262046 0.15775268 -0.00971822 0.061072137 0.17947134
-0.016335377 -0.16827643 0.045297816 0.07092011 0.0816149 -0.1649197 -0.11201123 0.091515675
-0.07268724 0.22783196 -0.10799213 0.20733587 -0.11829461 0.2187499 0.022268461 0.13884625
-0.14873561 0.07864283 -0.080902025 -0.12251198 0.07122688 0.22734758 -0.057674292 -0.071203
0.03507198 0.2155909 -0.03341032 0.029738726 -0.039101996 -0.10328316 0.13017525 0.12099112
-0.026359636 -0.026719976 0.027849292 0.15625508 0.017695999 0.19750375 0.05027642 -0.0719608
0.00050508976 0.20761088 0.14027348 0.15291506 0.119442984 0.021008158 -0.024881558 -0.1333835
-0.09248121 -0.19727641 -0.19537498 0.12844968 0.12841034 0.17416967 0.12404935 -0.20992368
