day15_and/mnist_cnn_holl.tflite (tflite, 404680 bytes, 4 tensors)

sequential/dense/BiasAdd/ReadVariableOp f4 [128]
000000 00 00 00 00 1e 93 44 bb 0c af 2c ba 00 00 00 00
       0.0 -0.0029994915 -0.00065873633 0.0
000010 65 ac 42 bb 10 ae 42 bb 00 00 00 00 9f 7e 04 ba
       -0.0029704806 -0.00297058 0.0 -0.00050542684
000020 87 9b 44 bb 57 3a 12 ba 0a 63 07 ba 7f 11 05 ba
       -0.0029999928 -0.00055781513 -0.0005164599 -0.00050761545
000030 8d ae 42 bb 1d 92 42 bb 98 47 44 bb a7 a0 44 bb
       -0.002970609 -0.002968914 -0.00299499 -0.0030002983
000040 00 00 00 00 5a b0 42 bb 00 00 00 00 00 00 00 00
       0.0 -0.0029707165 0.0 0.0
000050 00 00 00 00 00 00 00 00 00 00 00 00 c0 bc 44 bb
       0.0 0.0 0.0 -0.003001973
000060 fa bc 30 ba 00 00 00 00 00 00 00 00 6b e9 13 ba
       -0.0006742027 0.0 0.0 -0.0005642387
000070 3e 99 12 ba 00 00 00 00 00 00 00 00 00 00 00 00
       -0.0005592293 0.0 0.0 0.0
000080 00 00 00 00 00 00 00 00 00 00 00 00 68 66 07 ba
       0.0 0.0 0.0 -0.0005165101
000090 00 00 00 00 a5 b1 42 bb 00 00 00 00 00 00 00 00
       0.0 -0.0029707935 0.0 0.0
0000a0 bb b3 05 ba f9 a2 44 bb 97 ba 44 bb d5 ac 44 bb
       -0.0005100329 -0.0030004366 -0.0030018443 -0.0030010242
0000b0 00 00 00 00 86 ba 44 bb 00 00 00 00 e7 c3 44 bb
       0.0 -0.0030018403 0.0 -0.0030023993
0000c0 00 00 00 00 a5 a9 44 bb bb 2d 05 ba 01 af 42 bb
       0.0 -0.0030008343 -0.0005080362 -0.0029706361
0000d0 00 00 00 00 32 e3 9d ba 8f 70 11 ba aa e8 06 ba
       0.0 -0.0012045859 -0.00055480836 -0.0005146364
0000e0 00 00 00 00 00 00 00 00 6f 46 44 bb 00 00 00 00
       0.0 0.0 -0.0029949208 0.0
0000f0 00 00 00 00 27 ac 42 bb 67 8c 07 ba d7 23 04 ba
       0.0 -0.0029704662 -0.0005170763 -0.0005040741
000100 00 00 00 00 66 ae 42 bb 00 00 00 00 64 ad 42 bb
       0.0 -0.0029706 0.0 -0.00297054
000110 00 00 00 00 00 00 00 00 00 00 00 00 00 00 00 00
       0.0 0.0 0.0 0.0
000120 00 00 00 00 e6 b2 42 bb 81 37 42 bb 00 00 00 00
       0.0 -0.0029708683 -0.0029635134 0.0
000130 00 00 00 00 d0 81 42 bb 00 00 00 00 29 b0 42 bb
       0.0 -0.0029679425 0.0 -0.002970705
000140 00 00 00 00 00 00 00 00 e3 7a 08 ba 00 00 00 00
       0.0 0.0 -0.00052063 0.0
000150 00 00 00 00 00 00 00 00 00 00 00 00 00 00 00 00
       0.0 0.0 0.0 0.0
000160 b0 90 03 ba 6d a9 44 bb 4e ae 44 bb 00 00 00 00
       -0.00050188135 -0.0030008212 -0.003001112 0.0
000170 74 76 06 ba 00 00 00 00 00 00 00 00 00 00 00 00
       -0.0005129345 0.0 0.0 0.0
000180 00 00 00 00 74 76 03 ba 00 00 00 00 00 00 00 00
       0.0 -0.00050149043 0.0 0.0
000190 00 00 00 00 f1 8f 44 bb 0c 2e 15 ba 00 00 00 00
       0.0 -0.0029993022 -0.00056907604 0.0
0001a0 00 00 00 00 00 00 00 00 00 00 00 00 1c 4b 0d ba
       0.0 0.0 0.0 -0.00053899153
0001b0 46 6f 10 ba f6 ad 42 bb 8f b1 44 bb 00 00 00 00
       -0.0005509745 -0.002970574 -0.003001306 0.0
0001c0 00 00 00 00 00 00 00 00 00 00 00 00 99 88 44 bb
       0.0 0.0 0.0 -0.0029988645
0001d0 00 00 00 00 00 00 00 00 62 6b 0d ba 00 00 00 00
       0.0 0.0 -0.00053947244 0.0
0001e0 00 00 00 00 00 00 00 00 00 00 00 00 00 00 00 00
       0.0 0.0 0.0 0.0
0001f0 00 00 00 00 00 00 00 00 00 00 00 00 34 09 0f ba
       0.0 0.0 0.0 -0.00054563885

sequential/dense_1/BiasAdd/ReadVariableOp f4 [2]
000000 01 46 12 3b 02 46 12 bb
       0.0022319558 -0.002231956

sequential/dense/MatMul f4 [128, 784]
000000 28 5e 17 3c 9e ad 84 bd d3 5b 9d bd c0 b1 79 bb
       0.009238757 -0.06478427 -0.0768353 -0.0038100332
000010 6e b0 d2 bc 70 4b c7 bb f6 4e 24 3d 4d 4d 77 bd
       -0.025718894 -0.006081991 0.040114366 -0.060376454
000020 d6 eb 02 bd 21 47 39 bd b0 e9 6a bd 96 2e 75 3d
       -0.031963192 -0.04523385 -0.057351768 0.05985888
000030 d0 1f 8c bc 3a 6e 82 bd 80 35 27 3a 76 50 16 bd
       -0.017105013 -0.0636868 0.00063785166 -0.036697827
000040 06 e7 6f 3d a8 0f 3d bc c0 39 db 3c 80 27 84 ba
       0.05856993 -0.011539377 0.026760936 -0.0010082573
000050 9c 34 a9 bc 61 a7 a2 bd c8 58 1e bd a5 c7 96 bd
       -0.020654969 -0.07942081 -0.038658887 -0.07362298
000060 b3 08 88 3d a0 e3 66 bb 90 70 4c bd cc b9 f1 3c
       0.06642284 -0.003523089 -0.049912035 0.02950754
000070 dc 76 59 bd e0 6f 13 3d 27 42 8e 3d 08 c8 68 bc
       -0.05309187 0.035995364 0.06946211 -0.014207847
000080 00 a9 c2 bc 3a 88 30 3d d8 3a 2a bc b8 f7 1b 3d
       -0.023762226 0.043098666 -0.010390006 0.03807804
000090 80 58 ec 3c 5e 1e 40 3d 23 58 8d bd e0 1a 5d bc
       0.028850794 0.04690396 -0.06901576 -0.013495177
0000a0 2c 1a 8f bc c2 ce 42 bd 84 d4 c2 3c 6a f1 02 3d
       -0.017468534 -0.04756046 0.023782976 0.03196851
0000b0 d8 b8 37 3c 9a e4 91 bd f8 19 84 bc 41 0b 16 bd
       0.011213504 -0.071236804 -0.016125664 -0.036631826
0000c0 c0 a7 a0 3a 43 93 92 3d 76 c1 eb bc 27 63 81 3d
       0.0012257025 0.07156994 -0.028778773 0.0631774
0000d0 aa 86 65 3d ca a9 50 3d d0 c8 fe bc 76 90 91 bd
       0.05603663 0.050943173 -0.031101614 -0.07107632
0000e0 70 ef b5 3c a0 9c 08 bb 76 cb 5d 3d f2 4d 5a bd
       0.0222089 -0.002084531 0.054149114 -0.05329699
0000f0 d4 7b ae bc 12 87 96 bd 04 41 c2 bc b6 1b ee bc
       -0.02129928 -0.07349981 -0.023712642 -0.029065948
000100 a6 11 3b 3d 64 95 29 3d d4 55 db 3c 4c b1 99 3c
       0.045671128 0.041402236 0.026774324 0.0187613
000110 37 48 a2 bd aa 07 68 bd 19 98 27 bd c1 59 85 3d
       -0.0792393 -0.056647934 -0.040916536 0.0651126
000120 4e 0e 2d 3d 8e 69 9c bc e2 ef 3d bd a0 75 64 3b
       0.04224997 -0.019093301 -0.04637135 0.003486015
000130 58 ec 6d bd a5 36 97 3d 76 d2 5b 3d 36 27 27 bd
       -0.058086723 0.073834695 0.053667508 -0.04080888
000140 95 fa 06 bd 70 3b 00 bc 4a 16 53 3d 69 f9 a2 bd
       -0.032953817 -0.007826671 0.05153493 -0.079577275
000150 96 cd b1 bc 21 23 0d bd 4c 13 1f 3d 72 9f be bc
       -0.021704476 -0.03445733 0.038836762 -0.023269389
000160 f6 f5 71 3d b9 d1 9e 3d 70 15 8f 3b 16 1c 9a bc
       0.059072457 0.07754845 0.004366569 -0.01881222
000170 92 06 a1 bc 53 24 83 3d 7e 1f 41 3d 38 16 2d 3c
       -0.019656453 0.06403413 0.047149174 0.010564379
000180 1a 71 68 3d fa 23 02 3d 70 57 16 3d 71 54 80 3d
       0.056748487 0.03177259 0.03670448 0.06266106
000190 3b 89 85 3d c0 9e c8 ba 60 28 12 3c b0 23 32 3c
       0.06520315 -0.00153061 0.008920759 0.010872766
0001a0 b2 44 64 3d 4c 56 94 3c b3 4a a5 3d 02 ce 78 bd
       0.055729575 0.018107556 0.08070888 -0.06074334
0001b0 b6 08 b8 bc 40 0e b2 3a d8 db 6c 3c 10 3a a5 3c
       -0.022465091 0.0013584569 0.014456712 0.020169288
0001c0 ad 18 89 bd be 85 0d bd 86 e8 ab bc e6 d0 68 3d
       -0.0669416 -0.034551375 -0.0209849 0.056839846
0001d0 12 62 38 3d 50 1d 2f bc d6 ed 7d 3d 64 ee 5b bd
       0.045015402 -0.010688141 0.061994396 -0.053694144
0001e0 e4 5f 87 bd 79 6d 4e bd 9e 56 3d 3d 2d 74 95 3d
       -0.066100866 -0.05039737 0.046225183 0.072975494
0001f0 c0 5a b4 3a 0e d1 72 bd 4a dc 23 bd 48 07 7c 3c
       0.0013759956 -0.0592814 -0.040005006 0.015382595
000200 04 96 9f bd 35 d9 9a 3d eb 47 98 3d 12 09 a2 bd
       -0.07792285 0.0756096 0.07435592 -0.07911886
000210 f8 e7 b5 bc 00 89 3a ba 6e 4e 68 3d ad 37 92 3d
       -0.022205338 -0.00071157515 0.05671542 0.071395256
000220 30 46 4b bc 50 16 4c bc 76 22 37 3d b9 0f a2 3d
       -0.012406871 -0.012456492 0.0447106 0.07913155
000230 d0 b4 3b bc a0 a7 cf bb 1c 07 9d 3c 9e 38 13 3d
       -0.011456683 -0.006337121 0.01916843 0.035942666
000240 cc b2 5f bd 90 6c 4a 3c cd 02 83 3d 30 f6 68 3c
       -0.054613873 0.012354985 0.063970186 0.014218852
000250 a8 99 8b 3c 52 30 74 3d bc 1c 73 bd d5 8b 76 bd
       0.017041042 0.059616394 -0.059353575 -0.060191948
000260 27 88 9b bd ae a2 eb bc 20 f0 94 bd b2 37 a5 bd
       -0.075943284 -0.028764095 -0.07272363 -0.08067264
000270 1b c7 1d bd 77 6d 99 3d 88 86 3a 3c ce 19 5c 3d
       -0.03851996 0.07491582 0.011384614 0.053735547
000280 20 35 68 bb f9 9d 51 bd 14 2d a5 3c 00 6b 36 bc
       -0.0035432056 -0.051176045 0.020163096 -0.011133909
000290 e8 35 b1 3c ec 84 61 bd e0 d7 5a 3b d0 2c 50 bc
       0.02163215 -0.055058405 0.0033392832 -0.012705997
0002a0 f0 e8 81 3c 60 82 38 3b 27 5a 2f bd 86 5e 6e bd
       0.015858144 0.0028153881 -0.042810585 -0.058195613
0002b0 e0 68 cd 3b 38 36 0d bc 70 bf 94 bd b3 eb 9d 3d
       0.0062686056 -0.008618884 -0.07263076 0.07710972
0002c0 48 69 fa 3c ce e5 33 3d c2 a7 93 bd 9a 8f 39 bd
       0.03056778 0.04392033 -0.07209732 -0.045302965
0002d0 20 6a c6 bc 32 ba f7 bc 5c 04 86 bd 88 02 5e bc
       -0.024220526 -0.030240152 -0.065438 -0.013550408
0002e0 a0 0b f8 3b 01 1f 86 bd e0 c3 26 3d 9d ba 4f bd
       0.007569745 -0.06548882 0.040714145 -0.050715078
0002f0 00 78 f1 b8 80 31 71 3a 3e c2 83 bd ae f5 f2 bc
       -0.00011514127 0.00092007965 -0.06433533 -0.029658165
000300 db a3 1c bd 8a b2 31 3d b4 36 a0 bd c0 e5 a0 bd
       -0.038242202 0.04338316 -0.07822934 -0.07856321
000310 be 71 70 3d b3 c6 84 3d 22 db 74 3d 63 2f 2b bd
       0.058702223 0.06483211 0.059779294 -0.04179324
000320 a1 0e 46 bd 86 e7 52 3d 14 d1 c7 3c be 80 04 bd
       -0.048353795 0.05149033 0.024391688 -0.03234934
000330 d8 dd 2c 3d 70 f2 36 bd e8 c4 e3 bc dc ca 0f 3d
       0.042203754 -0.0446648 -0.027803853 0.03510557
000340 b9 8e 84 3d 14 ac 25 3d 1f 7c 8f bd e7 8f 81 bd
       0.06472535 0.04044731 -0.07006096 -0.06326275
000350 6d 6b 9c bd 7d 5c a5 3d 34 01 8f bc 30 58 36 bc
       -0.07637677 0.08074281 -0.017456628 -0.011129424
000360 c3 ba 3e bd 53 ac 30 bd 2c d3 a9 3c ff e3 72 bd
       -0.04656483 -0.04313309 0.020730577 -0.059299465
000370 22 74 9c bd fa 1d de bc 30 f9 b0 3b 77 1c 92 3d
       -0.07639338 -0.027113903 0.005400799 0.071343355
000380 a4 cf 84 bd e2 18 69 bd df c9 80 3d cc 60 d6 3c
       -0.06484917 -0.056908496 0.06288504 0.026169203
000390 a0 fa 12 3b 8c 64 ca bc b0 8e 9f 3b 43 7d 97 bd
       0.0022427216 -0.024706148 0.0048693046 -0.07396939
0003a0 00 14 67 bb e0 15 95 3c e8 52 a1 bd 50 dc 99 3b
       -0.0035259724 0.018198907 -0.07877141 0.0046954527
0003b0 46 af 4a 3d 0b 8a 60 bd a6 24 66 3d be 69 6e 3d
       0.04948356 -0.054819148 0.056187294 0.058206312
0003c0 de 48 dc bc 88 09 e6 3c 67 f8 65 bd 40 a4 4f bd
       -0.026890215 0.028080717 -0.056145098 -0.05069375
0003d0 a2 3c 76 3d b0 e3 0a 3d bd f0 9a bd 62 40 8a bd
       0.060116418 0.033908546 -0.075654484 -0.06750561
0003e0 6e 5b 16 3d c6 f5 a9 bc 52 9d 34 bd c7 1e 93 3d
       0.036708288 -0.020747077 -0.044095345 0.07183605
0003f0 3e 6d bb bc c0 30 44 3b b4 df 7e bd f9 49 9c 3d
       -0.02287924 0.0029936284 -0.06222506 0.07631297

sequential/dense_1/MatMul f4 [2, 128]
000000 8c 45 07 bd 67 5f 49 3e 87 ce 1b be e8 f9 92 bc
       -0.03302531 0.196653 -0.15215503 -0.01794143
000010 04 63 50 bd ab cc 49 3e c8 ba 1b bd c6 15 88 bd
       -0.05087568 0.19706981 -0.038019925 -0.06644778
000020 0a 08 86 bc 39 d1 53 be da a2 3e 3d ca 85 24 be
       -0.016361255 -0.20685281 0.046542026 -0.16066661
000030 d7 1c 40 3e e8 8f f7 3c ba e9 7d 3d 8d 41 4b 3d
       0.18761002 0.030219987 0.061990477 0.04962306
000040 10 d6 69 bd ee 5d a5 3d 27 21 2d 3e 9e 4e 1e be
       -0.05708891 0.08074556 0.16907178 -0.15459678
000050 67 34 55 3e 3b f8 57 3e 7e 28 f0 3d 86 3a f4 3d
       0.20820771 0.21090786 0.11726473 0.11925225
000060 81 02 28 be ae e7 aa 3d a9 55 14 3e 89 ff 9b bd
       -0.16407205 0.08344971 0.14485802 -0.07617099
000070 d4 3f 96 3c 44 b8 71 3d 7e 58 cc 3d 31 98 56 3e
       0.018340982 0.05901362 0.09977816 0.20956494
000080 36 fa 35 be 72 46 9e 3d 0e af a0 bd eb 8e d8 bd
       -0.17771229 0.0772828 -0.07845889 -0.105741344
000090 a7 eb 48 3e 89 5c 9f 3d e4 6a 6e 3d c1 e2 1e 3e
       0.19621144 0.077813216 0.058207408 0.15516187
0000a0 1a e1 3d be dd bb 8f 3d 73 3e d0 3d d7 14 a4 3d
       -0.185429 0.07018254 0.10168161 0.080117874
0000b0 85 14 13 be 17 4e 89 3d ed d9 40 be 8b f9 36 3e
       -0.14363296 0.067043476 -0.18833132 0.1786863
0000c0 d2 1c b7 3d 9a fe 18 3e ee c9 25 bd a7 ed 66 3d
       0.08941044 0.14940873 -0.04047578 0.056378987
0000d0 e3 05 f4 bd 05 aa ea 3d 97 59 7a bd 58 30 00 3c
       -0.11915185 0.1145821 -0.061120596 0.007824026
0000e0 60 80 4f bc 2e bd 91 3d 09 1f 24 bc 90 ca 0e 3d
       -0.012664884 0.07116161 -0.010017165 0.034861147
0000f0 4d 57 4a be 42 29 04 3e bf 17 3c 3b 0f 44 bc bd
       -0.19759865 0.12906364 0.0028700677 -0.09192669
000100 60 63 2b be 18 ef a8 3d e2 a4 a3 3d 34 37 ea 3d
       -0.16737127 0.082487285 0.07990433 0.114363104
000110 f9 1d 33 be 48 72 f8 bd 6a 04 c1 3d 8a e1 ae 3d
       -0.17491902 -0.121311724 0.0942467 0.08539112
000120 04 76 87 bd 89 58 53 3e 48 bc 43 3e 37 10 28 3e
       -0.066143066 0.20639242 0.19114792 0.16412435
000130 00 98 45 39 d4 6a 82 bd 75 ca bf bd 51 83 9c bd
       0.00018844008 -0.06368032 -0.093647875 -0.07642234
000140 8c 57 52 be 76 ab 2f be de 5f 4e 3d 2c d0 7c bd
       -0.20541209 -0.17155251 0.050384395 -0.061721966
000150 96 75 dd 3d cc 1b 6b 3d e6 93 3d be 1c 2a 16 bd
       0.10813443 0.057399556 -0.1851345 -0.036661252
000160 dd 72 45 be 6a 0d f4 3d b0 49 b9 bc 58 66 2c be
       -0.19282098 0.11916621 -0.022618145 -0.16835916
000170 37 0d 44 be 6a c0 1a be 74 61 57 be a0 ca e0 bc
       -0.19145666 -0.15112463 -0.21033269 -0.02744037
000180 ae 0e bd 3d 4b bc 0a be 00 06 12 bd 1a fd 3e be
       0.092313156 -0.1354839 -0.035650253 -0.18651238
000190 40 cb d5 bb f3 72 53 bd ba 4f 00 bc 9e aa c7 3d
       -0.0065244734 -0.051623296 -0.007831508 0.097493395
0001a0 40 c2 2c bd 30 bc 62 3c ef 3e 2c 3e f8 70 63 bd
       -0.04217744 0.013838813 0.16820882 -0.055527657
0001b0 72 f9 d7 3d c9 d7 06 3e ea 08 8a bd 4d 30 52 3e
       0.10545625 0.13168253 -0.067399815 0.20526238
0001c0 90 cc a8 bc 1c 9f 2f 3d 70 09 10 be e9 7b e7 3d
       -0.020605356 0.042876348 -0.140661 0.11302931
0001d0 8e b3 e9 3d 1e 8b 16 be 4e f3 35 be 81 61 54 3e
       0.114112005 -0.14701506 -0.17768595 0.2074032
0001e0 7f c0 4e 3e d0 41 2a bc cc 95 60 3d 40 1a a3 3c
       0.20190619 -0.0103916675 0.054830357 0.019909978
0001f0 4e 44 0b be db 46 1e 3e 06 e4 fd 3d b8 9c 21 bc
       -0.13600275 0.15456717 0.12397008 -0.009864025
000200 20 4e ab 3b 29 51 14 3e 23 9d 0a be cc 0d 3d 3d
       0.005227819 0.14484085 -0.13536505 0.046155736
000210 68 48 ec bd 94 6c e8 3d 52 91 aa 3d 81 66 51 3e
       -0.11537248 0.11348835 0.08328499 0.20449258
000220 9a 0d c1 bd ee 3e 08 be 57 c8 5e 3e fd 05 a6 3d
       -0.094264224 -0.13305256 0.21756111 0.08106611
000230 b1 8a c5 3d a1 68 a3 3c 47 bd 61 3d 71 cd 75 bd
       0.09645594 0.019947352 0.05511215 -0.060010377
000240 94 ed 17 bd 21 9a 62 bd 00 92 3a be 9e b3 d0 3d
       -0.037091807 -0.05532277 -0.18219757 0.10190509
000250 bc 73 27 3d 9a 06 ef 3d 04 eb 53 bd 06 08 9e bc
       0.040881857 0.11671181 -0.0517378 -0.019290935
000260 67 08 09 be 98 bd 98 bc b6 27 2f be 21 94 04 bc
       -0.13382111 -0.018645093 -0.17104992 -0.008091957
000270 b6 d8 b9 3d f4 11 d2 bd b4 a8 02 bd 65 c7 fd bd
       0.090745375 -0.102573305 -0.03189917 -0.12391547
000280 1a 15 88 bd 52 0f d2 3d d4 6d 03 be 4b 9f 8a 3d
       -0.0664465 0.10256828 -0.12834865 0.06768664
000290 05 52 15 3e c4 6c 04 be d9 97 11 3e 6a 5a 4e be
       0.14582069 -0.12932116 0.14218082 -0.20151678
0002a0 e3 f0 02 3d f7 9a 81 bd 9e da 24 bd 04 e0 cd 3c
       0.03196801 -0.06328385 -0.040247552 0.025131233
0002b0 44 c9 41 3d d1 8d 97 bd ec 82 2a bd 65 24 4d be
       0.047311082 -0.07400096 -0.041628763 -0.20033415
0002c0 84 e0 64 3d 86 09 41 be e1 e2 4c 3e db 9c 31 bd
       0.055878177 -0.18851289 0.20008422 -0.04336248
0002d0 76 fd 91 bd 73 bc fe 3d 86 5a 80 3c a2 88 45 3e
       -0.07128422 0.124382876 0.015668165 0.19290403
0002e0 a8 8e 64 bd 9a c3 99 3d 0c 84 89 bc a2 cc a3 3d
       -0.05580011 0.07508011 -0.016786598 0.07998015
0002f0 1c c6 3b be 71 57 88 3d 9c 25 2f 3e fc 68 4b 3e
       -0.18337291 0.06657303 0.1710419 0.19864267
000300 39 98 49 3e 0e 37 cc bb 0a 8b ba 3d 5e 16 22 3d
       0.19686975 -0.006232149 0.09108551 0.039572112
000310 f2 14 98 3d 36 36 87 3d 6a ba b8 3d 8e 5b c5 3d
       0.0742587 0.06602137 0.09019931 0.09636603
000320 b2 57 87 bd 79 16 4b be e8 48 45 3e 16 c5 a7 bd
       -0.066085234 -0.19832791 0.19266093 -0.08191888
000330 65 a0 5b 3e 73 f4 77 bd 78 e5 85 3c b6 dc 52 be
       0.21447904 -0.06053586 0.01634477 -0.20592007
000340 54 67 02 be a0 49 9d bb c5 b1 4d 3e 4a 7f a7 3d
       -0.12734729 -0.0048000365 0.20087345 0.08178575
000350 50 89 1a be 5b 85 29 3e 2b 44 10 3e d3 fd 0b 3e
       -0.15091443 0.16554777 0.14088504 0.13671045
000360 f9 a9 0f 3e 53 6f 50 be 31 24 a6 bd 41 57 07 be
       0.14029683 -0.20354967 -0.08112372 -0.13216878
000370 d0 78 ed 3a 4d 6c 04 3e 48 e5 48 bd 94 c3 0a 3d
       0.001811767 0.12931938 -0.049046785 0.033877924
000380 55 14 d9 bd 29 57 52 3e a2 4d 16 be 88 b3 d3 3c
       -0.10599581 0.20541061 -0.14678052 0.025842443
000390 bc f4 1b bd 3f 71 c7 bd 64 95 67 3d 96 31 db 3d
       -0.038075194 -0.09738397 0.056538954 0.10702817
0003a0 59 ab 1a 3e f8 6e 82 3c 44 3b 3a 3d e3 13 42 3d
       0.15104426 0.015922055 0.045466676 0.047382247
0003b0 4c 4e 3f 3e 90 a7 4a 3d 1f 76 12 be 4a ca d7 3d
       0.18682212 0.049476206 -0.14302872 0.105366305
0003c0 de 8f bf 3d f0 75 21 3c a0 c1 89 bc db 48 be 3d
       0.09353612 0.009854779 -0.01681596 0.0929124
0003d0 d1 3e 4c 3e 3c 48 bc bd a0 c0 a2 bd 7a 6a 98 bd
       0.19945838 -0.09193465 -0.079468966 -0.07442184
0003e0 00 93 b2 ba 40 84 0a 3d 4e 86 e9 3d e8 54 21 bd
       -0.0013624132 0.03381753 0.1140257 -0.039387614
0003f0 3a a0 85 bd a8 97 cf bd b7 4c 2e 3e 44 41 a0 3d
       -0.065247014 -0.10136348 0.17021452 0.078249484
