day15_and/mnist_cnn_holl2.tflite (tflite, 4296 bytes, 4 tensors)

sequential/dense/BiasAdd/ReadVariableOp f4 [128]
000000 64 00 a4 3b 00 00 00 00 c6 8d a1 bb 00 00 00 00
       0.0050049294 0.0 -0.004930231 0.0
000010 00 00 00 00 9a d2 a3 3b 9e 43 9a bb ea 73 a3 bb
       0.0 0.004999471 -0.0047077676 -0.0049881833
000020 0a 64 9a 3b c3 36 a4 3b da 33 9a 3b 00 00 00 00
       0.0047116326 0.005011411 0.004705888 0.0
000030 94 30 98 bb cb 99 a3 bb 00 00 00 00 7a 7d 87 3b
       -0.004644463 -0.004992699 0.0 0.004134831
000040 1a 39 9a 3b c9 94 99 bb 42 d4 a3 3b f8 1d 9a bb
       0.004706514 -0.004686926 0.0049996683 -0.0047032796
000050 74 40 a3 bb 7f cb a3 3b bf cb a3 3b 00 00 00 00
       -0.0049820486 0.004998624 0.0049986537 0.0
000060 00 00 00 00 a2 96 a3 bb 83 6c a3 bb f1 74 84 bb
       0.0 -0.004992322 -0.004987301 -0.004042261
000070 f4 24 a4 3b 12 cb a3 3b 29 bb a3 3b 3e 93 a3 bb
       0.005009288 0.004998573 0.0049966765 -0.004991918
000080 45 f2 9a bb 42 73 a3 bb 23 80 98 3b 7e a6 a3 3b
       -0.004728588 -0.004988105 0.004653947 0.0049942126
000090 86 c3 a3 3b 00 00 00 00 f6 96 a3 bb 00 00 00 00
       0.0049976734 0.0 -0.004992361 0.0
0000a0 68 65 a3 bb bf 0c 99 bb aa e6 a3 3b 74 c9 9a bb
       -0.004986454 -0.004670709 0.0050018625 -0.004723722
0000b0 00 00 00 00 00 00 00 00 6a b6 a3 3b 00 00 00 00
       0.0 0.0 0.0049961107 0.0
0000c0 5e 09 a4 3b cc 68 a3 bb 00 00 00 00 49 97 9a 3b
       0.0050059995 -0.004986858 0.0 0.0047177416
0000d0 61 57 9a bb 49 a6 a3 3b 47 5c 99 3b 7c 4b 99 bb
       -0.0047101234 0.004994188 0.00468019 -0.004678188
0000e0 7c 81 99 bb 00 00 00 00 0e 69 9a bb a4 fd a2 bb
       -0.004684625 0.0 -0.0047122305 -0.004974084
0000f0 46 c0 a3 3b 00 00 00 00 8d 3d 95 bb 31 6a a3 bb
       0.004997286 0.0 -0.0045544566 -0.0049870242
000100 72 c1 98 3b 00 00 00 00 ea b2 a3 3b 96 41 a3 bb
       0.0046617324 0.0 0.0049956935 -0.0049821837
000110 5a ab a3 3b 98 2f 9a 3b 6a 48 a3 bb 80 85 03 3b
       0.004994792 0.0047053806 -0.0049829977 0.0020068586
000120 f0 db a3 3b ee ad a3 3b 5d e3 a3 3b 33 65 a4 3b
       0.005000584 0.0049950993 0.005001469 0.0050169467
000130 bb 4d a4 3b 99 c9 a3 3b 1f 16 99 bb b1 3b a3 bb
       0.005014149 0.0049983975 -0.0046718265 -0.004981481
000140 a8 c5 a3 3b 70 ad a3 3b 38 d1 a3 3b d9 c6 a2 bb
       0.0049979277 0.0049950406 0.004999306 -0.004967552
000150 6c 8a 94 bb 00 00 00 00 00 00 00 00 b7 b4 98 3b
       -0.0045331027 0.0 0.0 0.0046602148
000160 00 00 00 00 45 8e 92 bb cc d2 a3 3b c7 e9 a3 3b
       0.0 -0.0044725263 0.004999494 0.0050022337
000170 00 00 00 00 58 fb 98 bb 00 00 00 00 f8 16 a3 bb
       0.0 -0.0046686344 0.0 -0.0049771033
000180 da 58 99 3b 8e 6c a3 bb 00 00 00 00 00 00 00 00
       0.0046797814 -0.004987306 0.0 0.0
000190 e2 3f a3 bb b2 58 a4 3b 3b 83 9b bb 00 00 00 00
       -0.0049819807 0.005015456 -0.0047458685 0.0
0001a0 5e 1d 9a bb e2 c0 a3 3b 9e 27 9a 3b c9 73 a2 bb
       -0.004703208 0.0049973587 0.00470443 -0.0049576503
0001b0 77 97 8d 3b 00 00 00 00 00 00 00 00 49 ef 9a 3b
       0.0043210345 0.0 0.0 0.004728232
0001c0 c7 46 9a 3b e0 b4 a3 3b bc 9b 93 bb 52 74 a3 bb
       0.0047081443 0.004995927 -0.004504649 -0.0049882317
0001d0 4e 27 9a bb a9 9a a1 bb 27 1a 98 bb 19 d8 a3 3b
       -0.0047043925 -0.004931767 -0.0046417895 0.005000126
0001e0 b8 eb 97 bb 00 00 00 00 bc af a3 3b 00 00 00 00
       -0.004636254 0.0 0.0049953144 0.0
0001f0 7a 73 5d bb 82 75 9a 3b 91 da 9a 3b 6a af 9a bb
       -0.0033790753 0.004713715 0.004725762 -0.004720618

sequential/dense_1/BiasAdd/ReadVariableOp f4 [2]
000000 ff ed 99 bb fe ed 99 3b
       -0.004697561 0.0046975603

sequential/dense/MatMul f4 [128, 2]
000000 1a 08 04 3e 30 87 59 be 20 f8 53 be 3c a5 37 be
       0.12893716 -0.21242976 -0.20700121 -0.17934126
000010 36 57 20 be 2c 43 29 3e 94 7c 31 bd 46 5b 29 be
       -0.15658268 0.1652953 -0.043331698 -0.16538724
000020 44 94 01 be 18 80 bd bc 26 45 bf 3c 66 f8 56 be
       -0.12654215 -0.023132369 0.023348402 -0.20993194
000030 45 08 47 3e 03 d5 18 3e fb 89 de 3d 00 50 de ba
       0.19436748 0.14925008 0.108661614 -0.0016961098
000040 63 99 77 3c ae 2b d9 3c 71 3b 58 3e 7c 91 00 be
       0.015112254 0.026510086 0.21116425 -0.12555498
000050 e6 d7 9a 3d a3 0e 09 3e 62 4c 2a be 4c e1 de bd
       0.075607106 0.1338449 -0.166307 -0.10882816
000060 b1 a0 0d 3c 0d c5 00 3e b2 2e 41 3e 3c a0 34 be
       0.008644269 0.12575169 0.18865469 -0.1763925
000070 40 05 4c bc d4 ad 51 be c4 8f 47 3e 02 59 29 3e
       -0.012452424 -0.20476466 0.19488436 0.1653786
000080 7c 4f 9e 3d d9 72 1f 3e 29 97 ac 3d 71 50 43 3e
       0.07730004 0.15571155 0.08427269 0.19073655
000090 5b 76 f9 3d 7c 89 1f be 18 b0 88 3d f1 5c 55 3c
       0.12180778 -0.1557979 0.06674212 0.013022647
0000a0 f6 d3 50 be 60 49 fd 3d 55 0f 2f 3e 32 1e 3c be
       -0.20393357 0.12367511 0.17095692 -0.18370894
0000b0 ed 18 77 3d 9e 39 25 be 1d 1c 43 be 5c f1 a0 bd
       0.060326505 -0.1613526 -0.19053693 -0.07858536
0000c0 78 49 09 be 13 6b cd bd bd 2f 2d 3e 40 fc ac bb
       -0.13406932 -0.100301884 0.16912742 -0.005279094
0000d0 3c 13 02 bd 47 61 d2 3c fb fe 88 3d 60 41 0f bd
       -0.031756625 0.025681151 0.06689259 -0.034974456
0000e0 92 5e ec bd 76 47 a0 3d cc 1a 34 3e 5b 14 2b be
       -0.11541475 0.0782613 0.17588347 -0.16706984
0000f0 f4 4d 95 bd ce d1 1b 3e 1e fa 91 3d 66 dc 47 be
       -0.07290259 0.15216753 0.07127784 -0.19517669
000100 83 e5 f7 3d 83 92 23 3d c8 62 3c be 1f dd 44 3e
       0.12104323 0.039934646 -0.18397057 0.19224976
000110 21 3e 1c 3e f6 34 09 3d 64 88 37 be 01 6d 38 3e
       0.15258075 0.033497773 -0.17923123 0.18010332
000120 44 51 b3 bd 3a ed 26 3e 40 2a 23 be 43 35 49 be
       -0.087557346 0.16301432 -0.15934086 -0.19649224
000130 3b f2 f1 3d a4 48 45 be 10 16 69 bd d0 d3 0f bc
       0.1181378 -0.19265991 -0.056905806 -0.008778527
000140 ad 23 01 3c b6 cd 1b be 82 5c ef 3d 7c d9 17 bd
       0.007882041 -0.15215191 0.11687566 -0.037072644
000150 b2 97 28 3d 50 4f 9b bc b8 a8 04 3e a5 cd 64 3d
       0.041160293 -0.018958718 0.12954986 0.05586018
000160 31 ae 3f be 98 cd 4c bd 23 ba db bd 30 96 df bd
       -0.18718792 -0.050000757 -0.10728862 -0.10917318
000170 9a 66 b9 bd 84 aa 4b 3e 88 76 80 bc 34 ee 07 be
       -0.09052773 0.19889265 -0.01568152 -0.13274461
000180 ae 6a 00 3c 3c 69 45 bd 6a 02 1c be 72 e7 23 3d
       0.007837934 -0.048196062 -0.15235296 0.040015645
000190 85 2b 3f be 30 90 35 be ce a8 60 3d 27 4d 4b 3e
       -0.18668945 -0.17730784 0.054848485 0.1985365
0001a0 3c 8e 20 3e 41 f0 09 3e 86 d8 ca bd cd 06 42 3e
       0.15679258 0.13470556 -0.0990458 0.18947907
0001b0 cc 86 e1 3d 2c 3c 9a 3d 22 68 b3 3d f7 ce 4a 3e
       0.110120386 0.07531008 0.08760096 0.19805513
0001c0 4c fb ac 3d 50 ac 34 3e 80 ad 17 bd 6c b2 07 be
       0.084463686 0.17643857 -0.037030697 -0.13251656
0001d0 d6 bd e1 3d 2d 0b 27 3d 90 ec 39 be b1 1d 03 3e
       0.110225365 0.040782142 -0.18156648 0.12804295
0001e0 6e 41 f6 bd 4e 49 96 3d 1f 89 58 be d0 2d e0 bc
       -0.120241985 0.073382005 -0.21146058 -0.027365595
0001f0 44 7c 9c bd 4b 2b 56 3e 08 27 a4 bc a2 2f 91 3d
       -0.07640889 0.20914952 -0.020038143 0.07089163
000200 b8 14 1b 3e a0 f2 f4 3b cc 78 0f bd d2 5a 0a be
       0.15144622 0.007475212 -0.03502731 -0.13511208
000210 b8 1e 66 bd 09 32 13 3e 09 cf 93 3d a8 46 53 be
       -0.05618164 0.14374556 0.07217223 -0.20632422
000220 ed 0e fa bd 1c a7 ce 3d 29 d2 7b 3d 08 31 11 3e
       -0.12209878 0.10090467 0.06147972 0.1417886
000230 5c 7c f0 bd f4 24 01 3e d6 f4 01 be ab f2 3f 3e
       -0.1174247 0.12611753 -0.12691054 0.18744914
000240 93 9e 99 3c 6c f7 45 be 1f b9 52 be 99 56 06 3e
       0.018752372 -0.19332665 -0.2057843 0.13118972
000250 c7 82 cd 3c e5 8c df bd 49 f6 85 3d ae 1f 89 bd
       0.025086774 -0.109155454 0.06541116 -0.066954955
000260 0f cc e0 bd b3 39 66 3d 0b d4 90 3d 98 a2 38 bd
       -0.10976421 0.05620737 0.07071694 -0.045076936
000270 1e c7 b2 3d 34 e9 b2 3d 80 39 65 bd 33 f1 98 3c
       0.08729385 0.08735886 -0.05596304 0.0186697
000280 2a db 41 be 7c 5b 3c 3e 10 be fa bc 20 eb 3e 3e
       -0.1893126 0.18394274 -0.030608207 0.1864438
000290 f4 7e 22 3e 41 5c 56 be d8 c9 71 bd 66 35 43 3e
       0.15868741 -0.2093363 -0.059030384 0.19063339
0002a0 03 9a 8e 3d 98 45 94 3d cc ef 85 bd 9c a6 08 be
       0.06962969 0.072398365 -0.06539878 -0.13344806
0002b0 16 a5 ac bd 78 b9 95 bc 9d 2d 0f 3e e3 cc a2 3d
       -0.08429925 -0.018276915 0.13982244 0.07949235
0002c0 a4 7d ad bd 58 40 a5 bd 49 65 08 3d 86 14 cd 3d
       -0.0847123 -0.08068913 0.033299718 0.1001368
0002d0 58 58 2d be 36 6d ea 3d 6f e1 04 3e d6 45 ad bd
       -0.16928232 0.114466116 0.12976621 -0.08460586
0002e0 d7 9f 53 be 62 6d ff bd ab 55 21 3d 5d d1 f5 3d
       -0.20666443 -0.12472035 0.03938834 0.120028235
0002f0 7c 07 af bd 84 84 26 be ae 25 a7 bd db 63 84 3c
       -0.085463494 -0.16261488 -0.08161484 0.016160896
000300 3c 0a 91 3c b6 3d 9c 3c 72 5d 22 be 44 9f fc 3c
       0.017705075 0.019072395 -0.15855959 0.030837663
000310 8d f5 35 be fb 5a ca bd 84 b9 3b be 90 1a 9a bd
       -0.17769451 -0.098806344 -0.18332487 -0.07524598
000320 40 c8 60 bc 54 fb c4 3d f9 8f 08 be 95 5e 46 3e
       -0.013719618 0.096182495 -0.13336171 0.19372018
000330 d8 79 ba 3d e9 76 8e 3d b1 57 d0 bd d0 e4 c3 bc
       0.09105271 0.06956274 -0.10172976 -0.023912817
000340 44 81 18 3e 4b 3e ac 3c d0 02 58 bc d4 6d 15 3d
       0.14893061 0.021025797 -0.013184264 0.036481693
000350 e6 c1 11 3e d7 19 26 3e 66 a0 17 be 1e 03 e5 3d
       0.14234123 0.16220795 -0.14807281 0.11182235
000360 b5 f6 47 3e ca 5e 92 3d fc a9 97 bd 40 a8 c4 bb
       0.19527705 0.07146986 -0.07405469 -0.0060015023
000370 a8 ba c5 bc 60 5e 13 bd 23 1e 8b 3c f3 83 e6 3c
       -0.024136856 -0.035978675 0.016982144 0.02813909
000380 57 2f ab 3c 1f d4 b6 3d 06 60 96 bd d7 8f 19 3d
       0.020896597 0.08927178 -0.07342534 0.037490692
000390 90 8b 83 3a a0 eb e6 bb e7 70 21 be 62 61 2b 3d
       0.00100361 -0.0070471317 -0.15765725 0.04184092
0003a0 44 aa 58 3d ea a8 13 3c 78 5a 04 be 63 7d bf 3d
       0.052896753 0.00901244 -0.12925136 0.093500875
0003b0 e7 f5 80 3d 6a 43 3b 3e b1 53 37 3e 81 f9 fd bd
       0.06296902 0.18287435 0.1790302 -0.12401105
0003c0 74 1e b5 3d 64 04 fe 3d 6c d1 03 be 9a 3d fd bd
       0.08843699 0.12403181 -0.12872857 -0.12365265
0003d0 72 cb 2a be a7 b7 1e 3e c2 93 c1 bd d4 65 1c be
       -0.1667917 0.15499745 -0.09452011 -0.1527322
0003e0 87 e8 3e 3e d4 33 1b 3b 74 04 0a 3c cf 21 30 3d
       0.1864339 0.0023682015 0.008423913 0.043000992
0003f0 e5 78 34 3d e6 42 56 3e 49 bd a2 3d 1c c7 7f 3d
       0.044060607 0.20923957 0.079462595 0.062445745

sequential/dense_1/MatMul f4 [2, 128]
000000 40 1a e4 3d 90 ec 2f bd 28 61 99 3b 1d 78 08 be
       0.11137819 -0.042950213 0.0046807714 -0.1332707
000010 c0 f6 cc bb 8d b3 5b 3e f2 67 46 3e 9a 6e 70 bd
       -0.006255001 0.21455212 0.1937559 -0.058699228
000020 b5 cd 1e be 14 78 5c 3e 27 1b 1b be cb c4 1a be
       -0.15508159 0.21530181 -0.15147077 -0.15114133
000030 d6 dd 0d be 45 0f 50 be 48 85 1d bd 57 4b 36 be
       -0.13854155 -0.20318325 -0.038457185 -0.17802177
000040 81 55 45 be 48 77 24 3e ef 46 17 3e b4 3c 1c 3e
       -0.19270898 0.16061127 0.14773153 0.15257531
000050 80 01 2b 3e c0 f7 25 3e 91 07 48 3e e4 26 34 3d
       0.16699791 0.1620779 0.19534136 0.0439824
000060 18 78 98 3c a0 31 fc bd 0b aa 17 3e be 4c 4d 3c
       0.018611953 -0.12314153 0.1481096 0.012530504
000070 86 36 39 be 68 69 29 3e 01 2e c4 bd 3f ee 24 be
       -0.18087205 0.16544116 -0.09579087 -0.16106509
000080 9d 7f 32 3e 64 50 08 3e 05 be bf bb 23 8b 3a be
       0.17431493 0.13311917 -0.0058515095 -0.18217139
000090 91 dc c0 bd 6d fe 48 3e 9c 40 de bd a0 78 7d 3c
       -0.0941707 0.19628306 -0.10852167 0.015470654
0000a0 0a f8 25 be df 42 83 3c bc 5f c7 bc a9 bd df 3d
       -0.162079 0.016023098 -0.024337642 0.10924847
0000b0 19 3b f9 bd 6f 5d 15 be 94 5b 67 ba 33 6e 19 3e
       -0.12169475 -0.14586423 -0.0008825597 0.14983444
0000c0 61 94 0c 3e 87 50 e7 3d 18 d4 9f 3c 0b 40 5d 3d
       0.13728477 0.11294656 0.019510314 0.054016154
0000d0 c4 1c 3a 3d cc f9 fb bd 26 6e 8b bd 44 28 19 3e
       0.04543759 -0.12303504 -0.068081185 0.14956766
0000e0 f4 9b 48 3e 00 33 a6 bd 80 46 c0 bd 06 6e 11 be
       0.19590741 -0.08115196 -0.09388447 -0.14202127
0000f0 cc 68 a7 bd 78 96 a6 3c 58 30 b0 bc 75 ee 33 3e
       -0.08174285 0.020335421 -0.021507427 0.17571433
000100 66 7a 08 be c6 e6 d5 3d fe 60 9f bd 5f 29 17 be
       -0.13327941 0.10444407 -0.07782172 -0.14761876
000110 74 f3 99 bd bf b0 b8 bd 14 f7 45 3e cc f5 80 3d
       -0.07517138 -0.09018087 0.19332534 0.06296882
000120 86 8f d0 3d 2a e9 98 bd 44 0d 07 3e d6 88 d7 bc
       0.10183625 -0.074663475 0.13188654 -0.026310366
000130 37 ec 98 3d b9 b9 53 3e 25 75 4b 3e 60 2b 01 bd
       0.074669294 0.20676316 0.19868906 -0.031535506
000140 d0 87 30 be 0c a0 31 be 47 1d 1b 3e 24 ac 3e 3e
       -0.17239308 -0.1734621 0.15147887 0.18620354
000150 b6 d2 87 3d 5a 62 b9 3d 8d 81 e7 bd d2 22 34 be
       0.06631987 0.09051962 -0.11304007 -0.17591408
000160 da 8a c7 3d 10 22 a3 3d 6c f3 d2 bc 0e ae 9b 3d
       0.09743281 0.07965481 -0.025750838 0.07601558
000170 a3 8b 27 3e fc 7a df 3d 1b 78 00 3e 19 af 40 3e
       0.16361861 0.10912129 0.12545817 0.18816794
000180 a8 f7 12 bc 41 ba 52 3e 88 14 a4 bc 59 cf 54 be
       -0.008970179 0.20578863 -0.020029321 -0.20782222
000190 5a 9a 06 bd ec ab 09 3e 07 55 97 bd 61 3a 10 3e
       -0.032862045 0.13444489 -0.073892646 0.1408477
0001a0 55 13 60 3e 86 0c 33 bd 8e f7 88 bc 4c 89 36 3e
       0.21882375 -0.043713115 -0.016719606 0.17825812
0001b0 71 48 f7 3d 66 52 84 bd be fe b1 bd e5 9e 09 3e
       0.12074364 -0.06461029 -0.08691166 0.1343952
0001c0 b5 fa 14 be 85 5f b2 bd c9 81 12 be 90 10 4a 3e
       -0.14548762 -0.08709625 -0.14307322 0.1973288
0001d0 b7 2a d2 3c c1 ae 50 3d 52 3b ce bc cc 02 28 3e
       0.025655134 0.05094791 -0.02517477 0.16407317
0001e0 9e f8 d3 3d 56 76 d4 3d 68 d8 55 be a2 44 be 3d
       0.10350154 0.10374133 -0.20883334 0.092904344
0001f0 18 67 fa bd 15 43 06 bd b6 d9 27 be f9 24 9b bd
       -0.12226695 -0.03277882 -0.16391644 -0.07575411
000200 f2 7f 4f 3c 98 21 63 bd a4 b6 3c bc ae cd 13 be
       0.012664782 -0.05545196 -0.011518154 -0.1443393
000210 dd de 37 be ce 0d 6e bd 1c 9b 2f 3d 31 84 83 3d
       -0.1795611 -0.058118634 0.042872533 0.06421698
000220 2b ea 51 bd 3e 91 25 3e 83 9a 16 3d 90 81 e5 bc
       -0.05124871 0.16168687 0.036768448 -0.028015882
000230 4c 26 46 be ed f9 9a 3d 20 4c a0 bd 9d 05 38 be
       -0.19350547 0.07567201 -0.0782702 -0.17970891
000240 5f 42 9c bc 0a ab f8 bd 45 99 de bd 53 84 0d be
       -0.019074617 -0.12141998 -0.108690776 -0.13820009
000250 1e b0 57 3d 0d f2 54 be 54 6d 2e be 81 45 20 be
       0.052658193 -0.2079546 -0.17033893 -0.15651514
000260 10 66 20 bd ef 07 04 3e 6d bf e7 bd d2 32 0c 3c
       -0.039159834 0.12893651 -0.113158084 0.008557038
000270 f8 8c 05 be 38 ea 59 be d6 65 ae 3d ca f4 89 3d
       -0.13042057 -0.21280754 0.085155174 0.06736143
000280 63 d6 00 3e 3b 5e 46 be 21 76 7f 3d a0 c4 20 3e
       0.12581782 -0.19371884 0.062368516 0.15700006
000290 f5 84 6c 3d d8 48 be bc 4f 91 15 3e ec ee 12 3d
       0.057743985 -0.023228094 0.14606212 0.035872385
0002a0 af ad 7d bd a1 6e 80 3c bc c6 37 be 34 b4 54 3d
       -0.061933216 0.015677752 -0.17946905 0.051929668
0002b0 f0 8e 14 be be 29 43 be 9b b5 4e 3e 8f 4c 29 3e
       -0.14507651 -0.19058892 0.20186464 0.16533111
0002c0 e1 80 53 3d b1 dc fb bd 8e 4b 4a be ea 1e 03 3e
       0.05163658 -0.12297953 -0.19755384 0.12804762
0002d0 eb 77 93 bd 09 6c 60 3e 56 11 dd 3d a8 c0 0a bc
       -0.07200607 0.21916212 0.10794322 -0.008468784
0002e0 9e 33 1d bd 49 3a f6 bd 16 4a 49 be a3 5d 50 be
       -0.038379304 -0.12022836 -0.19657168 -0.2034822
0002f0 b2 a8 a4 3d 60 4e 33 bc 00 cb a3 bc 66 68 8e bd
       0.080399886 -0.010943979 -0.019994259 -0.06953506
000300 84 0e 49 bd 5a 6a de 3d ae 34 14 3e e1 db 9d bd
       -0.04908611 0.10860129 0.1447322 -0.07707954
000310 7b 82 53 3e f7 f5 e4 3d 13 32 87 3d 5c 7f 94 3d
       0.20655243 0.111797266 0.06601348 0.072508544
000320 a6 0d cd bd dd 09 3c 3e 00 9d 10 bd 68 38 42 bd
       -0.10012369 0.18363138 -0.035305977 -0.047417074
000330 5d f3 e5 3d 77 56 4f be e5 91 a5 3d eb 27 0e be
       0.112280585 -0.20247827 0.08084468 -0.13882415
000340 3d ec d8 bc d7 37 b6 3d 08 dd 0a be c0 39 11 3e
       -0.026479835 0.08897369 -0.13560879 0.14182186
000350 d3 ad 59 3d ec 92 3c bd 58 0c 6f bd d8 48 c3 bd
       0.053144287 -0.046038553 -0.05836138 -0.09535378
000360 3a 2e c2 3d 54 d6 93 3d 12 62 bb 3d 4a 96 8d bd
       0.09481473 0.07218614 0.09149565 -0.06913431
000370 34 bf 62 bd fc 94 7d 3b 88 1a eb 3c c6 5a e9 3d
       -0.055358127 0.0038693538 0.028699175 0.11394267
000380 1e df 24 3e f1 30 65 bd 70 03 4a be b0 9d 48 bd
       0.16100737 -0.055954877 -0.19727874 -0.048978508
000390 7f db 15 be dc 3d 2d 3e a3 69 d7 bd 64 ab 75 bd
       -0.14634512 0.16918129 -0.105181955 -0.059977904
0003a0 d1 d7 9b bd 78 b9 ee 3d 30 8f 5e 3e d2 d2 16 3e
       -0.07609523 0.11656469 0.21734309 0.14728859
0003b0 e4 15 fa 3d dd 95 57 3e 4a f7 9f 3d 07 00 3a 3e
       0.122112066 0.21053262 0.078108385 0.18164073
0003c0 c0 02 35 ba 8b 5c fe 3d b9 19 51 bd 94 77 11 be
       -0.0006905012 0.12419995 -0.05104992 -0.14205772
0003d0 93 58 57 be 0f 61 0c 3d 8c 1b 9e bd 8f e7 7c bd
       -0.21029882 0.03427225 -0.07720098 -0.06174427
0003e0 c6 87 68 3d c0 52 a4 bb 48 79 10 3d a0 30 fd 3c
       0.05677011 -0.0050147474 0.035271913 0.030906975
0003f0 2d ac 4d be 29 a7 76 3d 4c e5 e2 bd 06 d8 0d be
       -0.20085211 0.06021801 -0.11078891 -0.13851938
