day15_and/mnist.tflite (tflite, 408808 bytes, 4 tensors)

sequential/dense/BiasAdd/ReadVariableOp f4 [128]
00000000: ff8b 7c3d daef 5a3c 3c63 15be 4f35 b93d
00000010: 4f29 193d 2c29 453d 72e9 773d 0516 3dbd
00000020: 45a6 47bd 8979 f43c b09a e13a 0403 333d
00000030: fa1e d63d 73ea a83b c73b fc3c a83d 1dbd
00000040: ed37 dd3d d8e8 443c 8c66 8ebc 711f 73bc
00000050: 3773 8cbd b10a 933c a2c4 163e f155 b8ba
00000060: 9a9b 963d 10ef ff3d d80f e53d cf9f a63d
00000070: 2bdc 8fbd a393 a53c fa19 063e d243 fe3d
00000080: 42fd d7bb 0dba b4bd 3cd4 0f3e 8616 63bd
00000090: 4c56 b23d a3c3 c4bd 2ea6 d5ba f86e 013d
000000a0: aae9 a9bd e96a 023e 4ff8 4ebd 0d05 5cbc
000000b0: 3aa7 c13d 7e02 003e 2cf9 8fbc b8b4 e33c
000000c0: 86ec c13d 0c42 203c 2b18 033d b004 5d3c
000000d0: 6e84 ef3d 3db6 143d 7c4b 103d 7cea 073d
000000e0: 81f5 03bc 59e9 a5bc 9037 6e3d 2ec2 4b3d
000000f0: f846 fe3d df48 3fbd 933c dfba ab27 7a3d
00000100: 667a 243e dd4e 853c 520f b93d 90e7 9d3b
00000110: 975c 0a3d 96af 82bb e378 063d 3dcb d33d
00000120: 4978 8c3d fef8 63bd aad5 853c 84be 5cbd
00000130: cf7f 663e 6b40 cf3c f31c cb3d 1239 0d3c
00000140: a328 93bd 811c bf3d 3a7f 123c d496 7ebd
00000150: 0e25 eabd 14f1 14bc caa6 d7bd 4590 5bbc
00000160: 2f91 893d efb0 373e a4da 523c 36eb 303e
00000170: 356c b63d 6108 0e3e 7681 6d3e fcab 81bd
00000180: 32b6 003d 87b4 3fbd cc05 033d 079e 1f3d
00000190: 5151 e43c f02a d13c 66f9 923d f752 dd3c
000001a0: c422 a9bd 5f64 3b3b 117b 14bd b312 db3d
000001b0: 3837 cabd d311 dabc 5d2c 81bc 2171 5e3d
000001c0: 8bb4 1b3d b130 4bbd f6de debb bf8b 253d
000001d0: 6d35 ab3d 7858 943d 040f 4a3e 1137 52bc
000001e0: be1f d9bc 6531 023d 6da3 0e3e 88f3 873d
000001f0: 0d22 fe3b 4fe8 aabb 1813 5dbc ade9 fcbd
0.06165695 0.013362849 -0.14588636 0.09043371 0.03739291 0.048134968 0.060525365 -0.046163578
-0.04874255 0.029843109 0.0017212238 0.043704048 0.10455127 0.0051549016 0.030790223 -0.038388878
0.108016826 0.012018405 -0.017382883 -0.014839039 -0.06857913 0.017949434 0.14723447 -0.0014063698
0.073538974 0.124967694 0.111846626 0.0813595 -0.070244156 0.020212 0.13095847 0.124152794
-0.00659147 -0.08824549 0.14045805 -0.055441402 0.08707866 -0.09607627 -0.0016300136 0.03159997
-0.08296521 0.12736095 -0.050529774 -0.013428939 0.09455724 0.1250095 -0.01757487 0.027796134
0.094689414 0.009781372 0.03200547 0.013489887 0.11695181 0.03630661 0.035228238 0.033182606
-0.008054138 -0.02025287 0.058158457 0.04974573 0.1241588 -0.046700355 -0.0017031602 0.061072987
0.16062316 0.016272957 0.09036125 0.004818864 0.033779707 -0.0039882166 0.03283013 0.10341499
0.0685888 -0.05565738 0.016337235 -0.053892627 0.22509693 0.025299272 0.09917631 0.008619564
-0.07185485 0.093316086 0.008941466 -0.06215556 -0.11432849 -0.009090681 -0.10529859 -0.013401096
0.06717145 0.17938589 0.012869511 0.17277226 0.089073576 0.13870384 0.23193917 -0.063316315
0.031423755 -0.046803024 0.03198795 0.038969066 0.027870806 0.02553317 0.07176475 0.0270171
-0.08258584 0.0028593761 -0.036250178 0.10696926 -0.098738134 -0.026619827 -0.015768224 0.054307107
0.038013976 -0.049606983 -0.0068014814 0.040416475 0.083597995 0.072434366 0.1973229 -0.012830512
-0.026504394 0.031785388 0.1392953 0.06638247 0.007755524 -0.0052156816 -0.013493322 -0.123492576

sequential/dense_1/BiasAdd/ReadVariableOp f4 [10]
00000000: a9c3 e5bd 8027 99bd 685e 82bb 167f cfbd
00000010: d425 803d c755 793d c3db 143c 1827 8bbc
00000020: fe7c 043e fb4a 68bc
-0.1121896 -0.07478237 -0.0039785393 -0.101316616 0.06257215 0.06087282 0.009085598 -0.016986415
0.12938306 -0.014178033

sequential/dense/MatMul f4 [128, 784]
00000000: 0093 9f39 9435 b4bc e0f0 6fbd c046 20bc
00000010: 7cfb 8e3c e219 63bd 57eb a0bd 883d 4abd
00000020: 87f5 a53d 202b 5abc 3ccc 52bd 50f0 173c
00000030: 27d1 8dbd c400 89bd 6483 89bd eaae 063c
00000040: 405a 593b 4c25 9f3c 8473 35bd e228 74bd
00000050: 3059 f93c b288 293d 6806 9dbd 888e 0abc
00000060: 1f07 9b3d 001b 443c b0fc 46bc 9e85 c3bc
00000070: 0ea8 7dbd 67d3 22bd 69cf 923d f859 f03c
00000080: 8dcc 8f3d 7137 0c3d cde6 42bd 4a6f 80bd
00000090: 872e d0bc a34b afbd 36c9 12be e124 e03c
000000a0: cf7e a4bb 0d36 8c3c eb9a ed3d b4d1 35be
000000b0: 74de ffbd 7d87 c3bd 2fdb b5bc 204c 01bd
000000c0: 0fa9 40be 923c 1bbe 894e bcbd bd35 debb
000000d0: fc88 e23c 9f86 9f3d 38cb afbc 0760 873d
000000e0: b0be d9bc 5059 a6bc a8d5 3bbd ff78 d2bc
000000f0: f305 89bd f850 ccbc 2b8c f2bd 2e9f 0bbc
00000100: 1008 32be c365 4fbe acf5 41be d344 63be
00000110: ea00 a0be c139 17be 923f 89bd c18c 57be
00000120: 55af 7abd 3f89 9bbd 8ea8 89be 87b7 8fbe
00000130: ff42 a1be bef5 91be 7238 c3bd 0596 b2bd
00000140: 11b1 01be d904 f5bd 303d 8fbb b685 363d
00000150: 8eb7 473d ffa5 77bd 1533 a6bc 6902 0abe
00000160: a6c4 04bd ac88 4abd b0fa 25be 9ee7 0abe
00000170: 6981 15be 59ac 49be ee90 b5bd 5111 77be
00000180: e25d 28be 2ac9 61be 2a2e 1cbe 8321 28be
00000190: 617d 0dbe 5594 bebd 3b0d 8cbe 1fcb 4fbe
000001a0: 9440 adbc f975 babd c82c 2fbd 8026 d03b
000001b0: b43b ac3d 0385 aa3d 564b 1f3d 0651 6f3d
000001c0: 40cd ac3a d0ed 8bbd 0788 1cbe 5e95 3f3d
000001d0: ce40 d2bd 7849 4cbe f7de b4bd 1df8 f7bd
000001e0: 077f afbd 22da c9bd f8df e3bd ee93 003d
000001f0: 4be4 633d 8a4e 13be 0038 54be 2b1e e5bd
00000200: be9f b9bd 50d0 713b 8cfa c1bd f69b 76be
00000210: f2fb adbd 4b49 8bbd 13f4 10be 8c48 4cbd
00000220: 0ab1 013e fadf fc3d 066b a03b 29e1 403c
00000230: 8088 82bb 68ce 21bd c409 0bbe 05ae 9abd
00000240: 174d 0bbd 2db1 debd 1825 e4bd 602d 92be
00000250: 39e2 c8bd ec63 11be 33c3 3cbd ac16 db3d
00000260: 6019 d43c 4ecc a73a a305 443d 4937 0bbc
00000270: 9eb5 dcbd 593e e1bd f373 b3bd 4e47 39be
00000280: 9d56 84be 9b15 d7bd 26be 20be 8239 86bc
00000290: 535c cd3d e518 383e d77e 66bc 50df 8f3d
000002a0: df3f 4bbd ef20 d6bd d32d 143e 9b81 b73c
000002b0: 0375 1cbe 4863 03be c926 7bbe 9d91 19be
000002c0: e4c6 b2bd 5a8a 563d 94c9 bb3c d6a3 993d
000002d0: 9483 4c3e 09fb b33d f062 053e 4f09 e73d
000002e0: 42e1 b53d 72a1 bd3d ce67 1d3d 058b 0cbd
000002f0: 1e4d 32be 1bc1 823d f91e 323d 5228 b9bd
00000300: 0ec9 873d 3617 403e 0bbe dc3d 6d6a f23c
00000310: 9fda 493d 8097 19be e081 2d3e 1485 a03d
00000320: b738 08be d91d acbd f280 06be 1a4a 7fbe
00000330: c932 91bc 53c4 c53b e209 363d 783e db3d
00000340: ad45 f43d eb05 153e 6ac2 9d3d b0bb 033e
00000350: 4f4a 4f3d 0cb8 07ba e215 193d 3da2 64bd
00000360: 7178 183c 0604 e7bc 2d54 0abd 8804 163e
00000370: 3156 d53d f2a8 953e 3958 b03d f116 073c
00000380: 9319 41bd cc89 16be 87fa 0d3e 5826 d2bd
00000390: 55b0 4fbe f98e 1cbe 23fb 193d 168e 0bbe
000003a0: ffc6 45bd 5404 ff3c f728 5b3c 0eb0 1c3d
000003b0: 3150 573d 83ca 6abd f45d 2f3a d58d 0e3e
000003c0: e4ce e1bb 04a8 c5bd 5e7e 053e f7f9 7b3d
000003d0: c227 eabc 2235 063d e562 eebd 7eb1 ef3d
000003e0: e313 823e 84aa 6a3e e4f2 6ebd 6289 173d
000003f0: 3b9b 97bd 6ed8 59bd a5a7 c6bd 01eb a1bc
0.00030436367 -0.021998204 -0.058579326 -0.009782493 0.017453901 -0.055444606 -0.078573875 -0.049375087
0.08103471 -0.013315946 -0.051464304 0.009273604 -0.06924658 -0.06689599 -0.06714514 0.008220414
0.0033165365 0.019426964 -0.044299617 -0.0596093 0.030438036 0.04139013 -0.076672375 -0.008456834
0.075697176 0.011969328 -0.012145206 -0.023867425 -0.061927848 -0.03975239 0.071684666 0.029339775
0.07021437 0.03423256 -0.04758339 -0.06271227 -0.025412811 -0.085593484 -0.14334568 0.027361335
-0.0050199996 0.017115617 0.11601814 -0.17755777 -0.124936014 -0.09547327 -0.022199241 -0.03156674
-0.1881449 -0.15159824 -0.09194667 -0.0067813084 0.02765321 0.07789349 -0.021459207 0.06610113
-0.026580185 -0.02030626 -0.045858055 -0.025692461 -0.06690588 -0.024940953 -0.11843141 -0.008521838
-0.17385888 -0.20253663 -0.18941373 -0.22194223 -0.31250697 -0.14768125 -0.06701578 -0.21049787
-0.061202366 -0.07594537 -0.2688641 -0.28069708 -0.31496426 -0.285078 -0.095322505 -0.0872002
-0.12665202 -0.11963815 -0.004371308 0.04456111 0.048759036 -0.06046104 -0.02028803 -0.13477482
-0.0324141 -0.049446747 -0.16208911 -0.13564917 -0.14600147 -0.19694652 -0.08865534 -0.241277
-0.16442063 -0.22049394 -0.15251985 -0.16419034 -0.1381736 -0.09305636 -0.27353844 -0.20292328
-0.021148957 -0.09104533 -0.042767316 0.006352246 0.08409825 0.08326151 0.038890205 0.05842688
0.0013183728 -0.068324685 -0.15286265 0.046773307 -0.10266267 -0.19949901 -0.0883159 -0.12107871
-0.085691504 -0.09856059 -0.11126703 0.031391077 0.05563764 -0.14385429 -0.20724487 -0.11187395
-0.090636715 0.0036897846 -0.09471616 -0.24082932 -0.084953204 -0.06801089 -0.14155607 -0.049873874
0.12665191 0.12347408 0.0048955707 0.011772432 -0.003983557 -0.039503485 -0.13577944 -0.07552723
-0.034009065 -0.10873637 -0.111398876 -0.28550243 -0.098087735 -0.14198273 -0.046084594 0.10697684
0.025891006 0.0012801976 0.047856938 -0.008497068 -0.10776828 -0.1099822 -0.0876235 -0.18093607
-0.2584733 -0.10502168 -0.15697536 -0.016384844 0.10027375 0.17978247 -0.014068327 0.07025015
-0.04962146 -0.104555 0.14470606 0.022400668 -0.15279011 -0.12830842 -0.24526514 -0.14996953
-0.087293416 0.052378036 0.022923268 0.07501952 0.19972068 0.087881155 0.13026023 0.11281072
0.08880855 0.09259309 0.038429074 -0.034312267 -0.1741223 0.06384488 0.04348657 -0.090408936
0.06630145 0.18758854 0.10778435 0.029591763 0.04928076 -0.14999199 0.16944075 0.07837883
-0.13302885 -0.084041305 -0.13135126 -0.24930611 -0.017724412 0.0060353666 0.04444302 0.10705274
0.11927352 0.14553039 0.07703097 0.12864566 0.050607976 -0.00051772664 0.037374385 -0.055818785
0.009306059 -0.02820016 -0.033771683 0.14650166 0.1041683 0.29230458 0.08610577 0.008245216
-0.04714353 -0.14701003 0.138651 -0.1026122 -0.20282109 -0.15288915 0.03759302 -0.1362842
-0.04828548 0.031129993 0.013376466 0.038253836 0.05256671 -0.057322036 0.00066897203 0.13921292
-0.0068911184 -0.09651187 0.13036487 0.061517682 -0.028583411 0.032765515 -0.116399564 0.11703776
0.25405797 0.22916609 -0.058337107 0.036996253 -0.07402655 -0.05318492 -0.096999444 -0.019765379

sequential/dense_1/MatMul f4 [10, 128]
00000000: bca7 d93d 153f 363e d9fb 7d3e bdf1 483e
00000010: e986 bfbd dd5e 00bf 442b 09be db71 343e
00000020: 93d9 1e3e e15a afbe 0430 303d 3505 b23d
00000030: be2d 2abf fdb8 6cbd 0ecf 023e d5b0 6e3e
00000040: 0c1d cd3d bf3f 4dbd e9af a4bd 22ac 153c
00000050: e988 853c 5ec5 10be b6cb cc3d 946e 89be
00000060: 3e36 5e3e be9a 95be c99b 53be 3211 853e
00000070: 4a2f 173e 0134 753e e56b 50bf 4433 0d3e
00000080: 1d8f 1bbe 707b d4be 4ef9 263e aa23 52be
00000090: d40f 393d 4e71 5ebe ef0c f03d 8fbb 20bf
000000a0: d8b6 53bf 4ecd 443e aaef 673e 0fb6 2cbd
000000b0: 97d7 ac3e 2c3b 20bf 672d 013e d4ff 19be
000000c0: 48a6 9dba 9ca6 5c3e 3413 8c3e d0a3 14be
000000d0: 643a 893e 0a8e a43e 4717 21bf feea 533e
000000e0: 1dff 913c abe5 773e 0ca1 6e3e 473f 973d
000000f0: 1e9a 183e 8ef3 cf3e 74c6 703e 8563 3ebe
00000100: fab5 2abe d607 41bf 59d9 0dbf effa dbbd
00000110: d56c 8bbe e6f0 a8bd ba05 4a3e 93bc ed3d
00000120: 8b82 2bbe fa5f aebe 5ff4 a3be 80ec 8bbe
00000130: 5556 98be be72 93be 5d29 3cbe 52f3 bfbe
00000140: 2123 5e3e 57bc 99be 02f4 863d a2fc cb3d
00000150: c839 0fbe d0b4 bd3b 5bf4 233e cb27 1b3d
00000160: 5415 bdbd 0724 9e3e 8399 e3be d030 0fbf
00000170: e559 2e3d 404c 81be 5447 3f3d 8336 fb3d
00000180: 0466 febe 801d 0c3e 7c1a 91bd 5645 a2bd
00000190: d4e5 663e 1570 f33d 997d e4bd f38c 6dbd
000001a0: be1d 01bf 7c05 8a3d d8e4 1f3e fbb4 f63d
000001b0: e8ee a53e ff51 f7bd eba5 fc3d b49e b93c
000001c0: e0d2 b3be e954 54be f5fd 4b3e 590d 26be
000001d0: d49f edbd 5b8d dc3d 0d75 c93d f886 b7be
000001e0: a311 253d 7ef7 28bf 316e d0be 4cd0 abbe
000001f0: 82db a93d 0e04 e8bc ed92 a6bd 6353 31bd
00000200: 53a5 96be 6303 bd3d 397c fc3a 7274 8ebd
00000210: 0207 c9be d068 b83d 6ca7 42bd 0977 61be
00000220: 1749 7fbe 382f 16bd c8fb 533e 78fd 34be
00000230: 12ce 08be 2227 88be d244 103d da92 b4be
00000240: fab0 1cbf 8054 823d aad7 913e bd26 013e
00000250: 5a3d 9f3d d4f2 f93c 61f3 13be e836 24bd
00000260: 5495 423c f9bf 983e 84e3 b9be 7839 1fbe
00000270: 5bc3 b3be d0b7 babd 3a6e 713e 8545 8fbe
00000280: 5566 94be 296b 12be 0877 9f3e 4462 743e
00000290: 7268 32be dd94 383e 5e65 bcbe f571 25be
000002a0: e57d b23e 8568 78be e18b e23e 5343 713d
000002b0: e4da d5bd 5d17 f33d 8a82 ce3d 126b 053e
000002c0: 6f24 5e3e 4781 d1be 6549 93be 66db dabd
000002d0: be9a 213d 8b45 68be 4b26 e9be 6c8d b63e
000002e0: f39c 313d 3bd9 30be bf69 ef3e 6085 383e
000002f0: 645c 8dbe 472d 04be 4e25 373e 201c 1c3e
00000300: bc8f 87be f636 063f fefd 3fbd dc28 fabe
00000310: ca99 1abe 087e 64be 8901 d83e 4505 2c3e
00000320: aa3e 343e 3f6e 64be 8207 1e3d 71ff e23e
00000330: a326 cebd f77f 753e 52cf cc3e bc32 033e
00000340: 2b5e 11bc 0413 0dbc 86bb c7be 2d79 eabe
00000350: f29b d43e 48cf cabe 0fc0 d33d ecd9 903d
00000360: 91ff 2c3e c3b3 8e3e 92c2 213e e900 bb3c
00000370: ecd2 923e f016 ac3a 1adf 35bf 9ded 6fbe
00000380: f770 6e3d 9013 2f3e 81b5 aabe aefa 08be
00000390: 3a81 a8bd bb30 acbe 13c2 d53c 7644 8c3d
000003a0: 09a2 253d f06f 983d dfdf babe 239a acbe
000003b0: 4233 96be 8c67 10be 4c70 e43d 690b 783e
000003c0: 6bcf c0be d2ad 293c 1d57 76bd 827a 7abe
000003d0: d347 c33e ef51 7d3e c57f 4b3d c6d8 5a3e
000003e0: 6b6f 093d 07b8 e43d 4e35 2a3e cb31 833e
000003f0: 32ba 33be 9052 89be 6060 68bc ecdb 81be
0.10627696 0.17797501 0.24803104 0.19623466 -0.09351904 -0.5014475 -0.13395411 0.17621557
0.15512685 -0.34249023 0.04301454 0.086923994 -0.6647605 -0.057793606 0.12774298 0.23309644
0.10015306 -0.05010962 -0.08041365 0.009135278 0.016300635 -0.1413779 0.09999792 -0.26842177
0.21700379 -0.2921962 -0.20664896 0.2598968 0.14764133 0.23945619 -0.81414634 0.13789088
-0.15191312 -0.41500425 0.1630604 -0.20521417 0.04518111 -0.2172291 0.11721217 -0.6278619
-0.8270087 0.19218943 0.22650018 -0.042165812 0.33758232 -0.6259029 0.12614976 -0.15038997
-0.0012027705 0.21547931 0.273584 -0.14515615 0.2680236 0.32139617 -0.62926143 0.20695111
0.017821843 0.24208705 0.23303622 0.07385116 0.14902541 0.40615505 0.23513204 -0.18592651
-0.16670981 -0.7540258 -0.5540977 -0.10741221 -0.2723147 -0.08249073 0.19728747 0.11608233
-0.16749017 -0.340576 -0.32022378 -0.27328873 -0.29753366 -0.2879848 -0.18375154 -0.37490326
0.21693088 -0.30026504 0.065895095 0.09960295 -0.13986886 0.005789377 0.16011183 0.037879746
-0.09232584 0.30886862 -0.44453058 -0.55933857 0.0425662 -0.25253487 0.046698883 0.12266257
-0.49687207 0.13683128 -0.070851296 -0.07923381 0.2254861 0.11886612 -0.11156768 -0.057995748
-0.5043601 0.06739327 0.1561464 0.12046238 0.32408834 -0.120761864 0.12336334 0.022658683
-0.35121822 -0.20735516 0.19921096 -0.16216029 -0.116027504 0.10769149 0.09836779 -0.3584516
0.040300023 -0.66002643 -0.4070907 -0.33557355 0.08293821 -0.028322246 -0.081334926 -0.043292414
-0.29423007 0.092291616 0.0019263095 -0.06955804 -0.3926316 0.090043664 -0.047522947 -0.22018065
-0.24930225 -0.036666125 0.20701516 -0.17674816 -0.1335986 -0.26592356 0.035221882 -0.3526829
-0.61207545 0.06363773 0.2848485 0.12612434 0.07775374 0.030511297 -0.1444831 -0.040091425
0.011876423 0.29833964 -0.36306393 -0.15549266 -0.35109982 -0.09117091 0.23577204 -0.27982727
-0.28984323 -0.14298691 0.311455 0.2386561 -0.17422655 0.18025537 -0.36796087 -0.16156752
0.34861675 -0.24258621 0.44247344 0.058902096 -0.10442141 0.118696906 0.10083492 0.13029125
0.21693586 -0.40918943 -0.28766933 -0.10686378 0.039454214 -0.22682779 -0.45537028 0.3565477
0.04336257 -0.17270367 0.46760365 0.18019629 -0.2760955 -0.12907897 0.17885324 0.15245104
-0.26476848 0.52427614 -0.046873085 -0.48859298 -0.15097728 -0.22313702 0.4218867 0.16798885
0.1760203 -0.2230768 0.03858138 0.4433551 -0.10065963 0.23974596 0.40001923 0.12812322
-0.008872549 -0.008610491 -0.39010257 -0.45795575 0.41525227 -0.39611268 0.10339367 0.07072815
0.16894366 0.27871522 0.15796879 0.022827582 0.28676546 0.0013129395 -0.7104355 -0.23430486
0.0582132 0.17097306 -0.33341601 -0.13376877 -0.08227773 -0.33630928 0.026093518 0.068489954
0.040437732 0.074432254 -0.36498925 -0.33711347 -0.29335982 -0.14102 0.111542314 0.24223103
-0.37658247 0.010356383 -0.06014167 -0.24460796 0.38140735 0.24738286 0.049682397 0.21371755
0.033553522 0.11167913 0.16621897 0.25623927 -0.17551497 -0.26820803 -0.014183134 -0.253631
